{"class_name": "Model", "config": {"name": "inception_resnet_v2", "layers": [{"name": "input_1", "class_name": "InputLayer", "config": {"batch_input_shape": [null, 64, 50, 1], "dtype": "float32", "sparse": false, "name": "input_1"}, "inbound_nodes": []}, {"name": "conv1conv2d", "class_name": "Conv2D", "config": {"name": "conv1conv2d", "trainable": true, "dtype": "float32", "filters": 32, "kernel_size": [3, 3], "strides": [2, 2], "padding": "valid", "data_format": "channels_last", "dilation_rate": [1, 1], "activation": "linear", "use_bias": false, "kernel_initializer": {"class_name": "GlorotUniform", "config": {"seed": null, "dtype": "float32"}}, "bias_initializer": {"class_name": "Zeros", "config": {"dtype": "float32"}}, "kernel_regularizer": null, "bias_regularizer": null, "activity_regularizer": null, "kernel_constraint": null, "bias_constraint": null}, "inbound_nodes": [[["input_1", 0, 0, {}]]]}, {"name": "conv1conv2dbn", "class_name": "BatchNormalization", "config": {"name": "conv1conv2dbn", "trainable": true, "dtype": "float32", "axis": [3], "momentum": 0.99, "epsilon": 0.001, "center": true, "scale": false, "beta_initializer": {"class_name": "Zeros", "config": {"dtype": "float32"}}, "gamma_initializer": {"class_name": "Ones", "config": {"dtype": "float32"}}, "moving_mean_initializer": {"class_name": "Zeros", "config": {"dtype": "float32"}}, "moving_variance_initializer": {"class_name": "Ones", "config": {"dtype": "float32"}}, "beta_regularizer": null, "gamma_regularizer": null, "beta_constraint": null, "gamma_constraint": null}, "inbound_nodes": [[["conv1conv2d", 0, 0, {}]]]}, {"name": "conv1conv2dact", "class_name": "Activation", "config": {"name": "conv1conv2dact", "trainable": true, "dtype": "float32", "activation": "relu"}, "inbound_nodes": [[["conv1conv2dbn", 0, 0, {}]]]}, {"name": "conv2conv2d", "class_name": "Conv2D", "config": {"name": "conv2conv2d", "trainable": true, "dtype": "float32", "filters": 32, "kernel_size": [3, 3], "strides": [1, 1], "padding": "valid", "data_format": "channels_last", "dilation_rate": [1, 1], "activation": "linear", "use_bias": false, "kernel_initializer": {"class_name": "GlorotUniform", "config": {"seed": null, "dtype": "float32"}}, "bias_initializer": {"class_name": "Zeros", "config": {"dtype": "float32"}}, "kernel_regularizer": null, "bias_regularizer": null, "activity_regularizer": null, "kernel_constraint": null, "bias_constraint": null}, "inbound_nodes": [[["conv1conv2dact", 0, 0, {}]]]}, {"name": "conv2conv2dbn", "class_name": "BatchNormalization", "config": {"name": "conv2conv2dbn", "trainable": true, "dtype": "float32", "axis": [3], "momentum": 0.99, "epsilon": 0.001, "center": true, "scale": false, "beta_initializer": {"class_name": "Zeros", "config": {"dtype": "float32"}}, "gamma_initializer": {"class_name": "Ones", "config": {"dtype": "float32"}}, "moving_mean_initializer": {"class_name": "Zeros", "config": {"dtype": "float32"}}, "moving_variance_initializer": {"class_name": "Ones", "config": {"dtype": "float32"}}, "beta_regularizer": null, "gamma_regularizer": null, "beta_constraint": null, "gamma_constraint": null}, "inbound_nodes": [[["conv2conv2d", 0, 0, {}]]]}, {"name": "conv2conv2dact", "class_name": "Activation", "config": {"name": "conv2conv2dact", "trainable": true, "dtype": "float32", "activation": "relu"}, "inbound_nodes": [[["conv2conv2dbn", 0, 0, {}]]]}, {"name": "conv3conv2d", "class_name": "Conv2D", "config": {"name": "conv3conv2d", "trainable": true, "dtype": "float32", "filters": 64, "kernel_size": [3, 3], "strides": [1, 1], "padding": "valid", "data_format": "channels_last", "dilation_rate": [1, 1], "activation": "linear", "use_bias": false, "kernel_initializer": {"class_name": "GlorotUniform", "config": {"seed": null, "dtype": "float32"}}, "bias_initializer": {"class_name": "Zeros", "config": {"dtype": "float32"}}, "kernel_regularizer": null, "bias_regularizer": null, "activity_regularizer": null, "kernel_constraint": null, "bias_constraint": null}, "inbound_nodes": [[["conv2conv2dact", 0, 0, {}]]]}, {"name": "conv3conv2dbn", "class_name": "BatchNormalization", "config": {"name": "conv3conv2dbn", "trainable": true, "dtype": "float32", "axis": [3], "momentum": 0.99, "epsilon": 0.001, "center": true, "scale": false, "beta_initializer": {"class_name": "Zeros", "config": {"dtype": "float32"}}, "gamma_initializer": {"class_name": "Ones", "config": {"dtype": "float32"}}, "moving_mean_initializer": {"class_name": "Zeros", "config": {"dtype": "float32"}}, "moving_variance_initializer": {"class_name": "Ones", "config": {"dtype": "float32"}}, "beta_regularizer": null, "gamma_regularizer": null, "beta_constraint": null, "gamma_constraint": null}, "inbound_nodes": [[["conv3conv2d", 0, 0, {}]]]}, {"name": "conv3conv2dact", "class_name": "Activation", "config": {"name": "conv3conv2dact", "trainable": true, "dtype": "float32", "activation": "relu"}, "inbound_nodes": [[["conv3conv2dbn", 0, 0, {}]]]}, {"name": "stem_br_12conv2d", "class_name": "Conv2D", "config": {"name": "stem_br_12conv2d", "trainable": true, "dtype": "float32", "filters": 96, "kernel_size": [3, 3], "strides": [1, 1], "padding": "valid", "data_format": "channels_last", "dilation_rate": [1, 1], "activation": "linear", "use_bias": false, "kernel_initializer": {"class_name": "GlorotUniform", "config": {"seed": null, "dtype": "float32"}}, "bias_initializer": {"class_name": "Zeros", "config": {"dtype": "float32"}}, "kernel_regularizer": null, "bias_regularizer": null, "activity_regularizer": null, "kernel_constraint": null, "bias_constraint": null}, "inbound_nodes": [[["conv3conv2dact", 0, 0, {}]]]}, {"name": "stem_br_12conv2dbn", "class_name": "BatchNormalization", "config": {"name": "stem_br_12conv2dbn", "trainable": true, "dtype": "float32", "axis": [3], "momentum": 0.99, "epsilon": 0.001, "center": true, "scale": false, "beta_initializer": {"class_name": "Zeros", "config": {"dtype": "float32"}}, "gamma_initializer": {"class_name": "Ones", "config": {"dtype": "float32"}}, "moving_mean_initializer": {"class_name": "Zeros", "config": {"dtype": "float32"}}, "moving_variance_initializer": {"class_name": "Ones", "config": {"dtype": "float32"}}, "beta_regularizer": null, "gamma_regularizer": null, "beta_constraint": null, "gamma_constraint": null}, "inbound_nodes": [[["stem_br_12conv2d", 0, 0, {}]]]}, {"name": "stem_br_11_maxpool_1", "class_name": "MaxPooling2D", "config": {"name": "stem_br_11_maxpool_1", "trainable": true, "dtype": "float32", "pool_size": [3, 3], "padding": "valid", "strides": [1, 1], "data_format": "channels_last"}, "inbound_nodes": [[["conv3conv2dact", 0, 0, {}]]]}, {"name": "stem_br_12conv2dact", "class_name": "Activation", "config": {"name": "stem_br_12conv2dact", "trainable": true, "dtype": "float32", "activation": "relu"}, "inbound_nodes": [[["stem_br_12conv2dbn", 0, 0, {}]]]}, {"name": "stem_concat_1", "class_name": "Concatenate", "config": {"name": "stem_concat_1", "trainable": true, "dtype": "float32", "axis": 3}, "inbound_nodes": [[["stem_br_11_maxpool_1", 0, 0, {}], ["stem_br_12conv2dact", 0, 0, {}]]]}, {"name": "stem_br_211conv2d", "class_name": "Conv2D", "config": {"name": "stem_br_211conv2d", "trainable": true, "dtype": "float32", "filters": 64, "kernel_size": [1, 1], "strides": [1, 1], "padding": "same", "data_format": "channels_last", "dilation_rate": [1, 1], "activation": "linear", "use_bias": false, "kernel_initializer": {"class_name": "GlorotUniform", "config": {"seed": null, "dtype": "float32"}}, "bias_initializer": {"class_name": "Zeros", "config": {"dtype": "float32"}}, "kernel_regularizer": null, "bias_regularizer": null, "activity_regularizer": null, "kernel_constraint": null, "bias_constraint": null}, "inbound_nodes": [[["stem_concat_1", 0, 0, {}]]]}, {"name": "stem_br_211conv2dbn", "class_name": "BatchNormalization", "config": {"name": "stem_br_211conv2dbn", "trainable": true, "dtype": "float32", "axis": [3], "momentum": 0.99, "epsilon": 0.001, "center": true, "scale": false, "beta_initializer": {"class_name": "Zeros", "config": {"dtype": "float32"}}, "gamma_initializer": {"class_name": "Ones", "config": {"dtype": "float32"}}, "moving_mean_initializer": {"class_name": "Zeros", "config": {"dtype": "float32"}}, "moving_variance_initializer": {"class_name": "Ones", "config": {"dtype": "float32"}}, "beta_regularizer": null, "gamma_regularizer": null, "beta_constraint": null, "gamma_constraint": null}, "inbound_nodes": [[["stem_br_211conv2d", 0, 0, {}]]]}, {"name": "stem_br_211conv2dact", "class_name": "Activation", "config": {"name": "stem_br_211conv2dact", "trainable": true, "dtype": "float32", "activation": "relu"}, "inbound_nodes": [[["stem_br_211conv2dbn", 0, 0, {}]]]}, {"name": "stem_br_212conv2d", "class_name": "Conv2D", "config": {"name": "stem_br_212conv2d", "trainable": true, "dtype": "float32", "filters": 64, "kernel_size": [1, 7], "strides": [1, 1], "padding": "same", "data_format": "channels_last", "dilation_rate": [1, 1], "activation": "linear", "use_bias": false, "kernel_initializer": {"class_name": "GlorotUniform", "config": {"seed": null, "dtype": "float32"}}, "bias_initializer": {"class_name": "Zeros", "config": {"dtype": "float32"}}, "kernel_regularizer": null, "bias_regularizer": null, "activity_regularizer": null, "kernel_constraint": null, "bias_constraint": null}, "inbound_nodes": [[["stem_br_211conv2dact", 0, 0, {}]]]}, {"name": "stem_br_212conv2dbn", "class_name": "BatchNormalization", "config": {"name": "stem_br_212conv2dbn", "trainable": true, "dtype": "float32", "axis": [3], "momentum": 0.99, "epsilon": 0.001, "center": true, "scale": false, "beta_initializer": {"class_name": "Zeros", "config": {"dtype": "float32"}}, "gamma_initializer": {"class_name": "Ones", "config": {"dtype": "float32"}}, "moving_mean_initializer": {"class_name": "Zeros", "config": {"dtype": "float32"}}, "moving_variance_initializer": {"class_name": "Ones", "config": {"dtype": "float32"}}, "beta_regularizer": null, "gamma_regularizer": null, "beta_constraint": null, "gamma_constraint": null}, "inbound_nodes": [[["stem_br_212conv2d", 0, 0, {}]]]}, {"name": "stem_br_212conv2dact", "class_name": "Activation", "config": {"name": "stem_br_212conv2dact", "trainable": true, "dtype": "float32", "activation": "relu"}, "inbound_nodes": [[["stem_br_212conv2dbn", 0, 0, {}]]]}, {"name": "stem_br_213conv2d", "class_name": "Conv2D", "config": {"name": "stem_br_213conv2d", "trainable": true, "dtype": "float32", "filters": 64, "kernel_size": [7, 1], "strides": [1, 1], "padding": "same", "data_format": "channels_last", "dilation_rate": [1, 1], "activation": "linear", "use_bias": false, "kernel_initializer": {"class_name": "GlorotUniform", "config": {"seed": null, "dtype": "float32"}}, "bias_initializer": {"class_name": "Zeros", "config": {"dtype": "float32"}}, "kernel_regularizer": null, "bias_regularizer": null, "activity_regularizer": null, "kernel_constraint": null, "bias_constraint": null}, "inbound_nodes": [[["stem_br_212conv2dact", 0, 0, {}]]]}, {"name": "stem_br_221conv2d", "class_name": "Conv2D", "config": {"name": "stem_br_221conv2d", "trainable": true, "dtype": "float32", "filters": 64, "kernel_size": [1, 1], "strides": [1, 1], "padding": "same", "data_format": "channels_last", "dilation_rate": [1, 1], "activation": "linear", "use_bias": false, "kernel_initializer": {"class_name": "GlorotUniform", "config": {"seed": null, "dtype": "float32"}}, "bias_initializer": {"class_name": "Zeros", "config": {"dtype": "float32"}}, "kernel_regularizer": null, "bias_regularizer": null, "activity_regularizer": null, "kernel_constraint": null, "bias_constraint": null}, "inbound_nodes": [[["stem_concat_1", 0, 0, {}]]]}, {"name": "stem_br_213conv2dbn", "class_name": "BatchNormalization", "config": {"name": "stem_br_213conv2dbn", "trainable": true, "dtype": "float32", "axis": [3], "momentum": 0.99, "epsilon": 0.001, "center": true, "scale": false, "beta_initializer": {"class_name": "Zeros", "config": {"dtype": "float32"}}, "gamma_initializer": {"class_name": "Ones", "config": {"dtype": "float32"}}, "moving_mean_initializer": {"class_name": "Zeros", "config": {"dtype": "float32"}}, "moving_variance_initializer": {"class_name": "Ones", "config": {"dtype": "float32"}}, "beta_regularizer": null, "gamma_regularizer": null, "beta_constraint": null, "gamma_constraint": null}, "inbound_nodes": [[["stem_br_213conv2d", 0, 0, {}]]]}, {"name": "stem_br_221conv2dbn", "class_name": "BatchNormalization", "config": {"name": "stem_br_221conv2dbn", "trainable": true, "dtype": "float32", "axis": [3], "momentum": 0.99, "epsilon": 0.001, "center": true, "scale": false, "beta_initializer": {"class_name": "Zeros", "config": {"dtype": "float32"}}, "gamma_initializer": {"class_name": "Ones", "config": {"dtype": "float32"}}, "moving_mean_initializer": {"class_name": "Zeros", "config": {"dtype": "float32"}}, "moving_variance_initializer": {"class_name": "Ones", "config": {"dtype": "float32"}}, "beta_regularizer": null, "gamma_regularizer": null, "beta_constraint": null, "gamma_constraint": null}, "inbound_nodes": [[["stem_br_221conv2d", 0, 0, {}]]]}, {"name": "stem_br_213conv2dact", "class_name": "Activation", "config": {"name": "stem_br_213conv2dact", "trainable": true, "dtype": "float32", "activation": "relu"}, "inbound_nodes": [[["stem_br_213conv2dbn", 0, 0, {}]]]}, {"name": "stem_br_221conv2dact", "class_name": "Activation", "config": {"name": "stem_br_221conv2dact", "trainable": true, "dtype": "float32", "activation": "relu"}, "inbound_nodes": [[["stem_br_221conv2dbn", 0, 0, {}]]]}, {"name": "stem_br_214conv2d", "class_name": "Conv2D", "config": {"name": "stem_br_214conv2d", "trainable": true, "dtype": "float32", "filters": 96, "kernel_size": [3, 3], "strides": [1, 1], "padding": "valid", "data_format": "channels_last", "dilation_rate": [1, 1], "activation": "linear", "use_bias": false, "kernel_initializer": {"class_name": "GlorotUniform", "config": {"seed": null, "dtype": "float32"}}, "bias_initializer": {"class_name": "Zeros", "config": {"dtype": "float32"}}, "kernel_regularizer": null, "bias_regularizer": null, "activity_regularizer": null, "kernel_constraint": null, "bias_constraint": null}, "inbound_nodes": [[["stem_br_213conv2dact", 0, 0, {}]]]}, {"name": "stem_br_222conv2d", "class_name": "Conv2D", "config": {"name": "stem_br_222conv2d", "trainable": true, "dtype": "float32", "filters": 96, "kernel_size": [3, 3], "strides": [1, 1], "padding": "valid", "data_format": "channels_last", "dilation_rate": [1, 1], "activation": "linear", "use_bias": false, "kernel_initializer": {"class_name": "GlorotUniform", "config": {"seed": null, "dtype": "float32"}}, "bias_initializer": {"class_name": "Zeros", "config": {"dtype": "float32"}}, "kernel_regularizer": null, "bias_regularizer": null, "activity_regularizer": null, "kernel_constraint": null, "bias_constraint": null}, "inbound_nodes": [[["stem_br_221conv2dact", 0, 0, {}]]]}, {"name": "stem_br_214conv2dbn", "class_name": "BatchNormalization", "config": {"name": "stem_br_214conv2dbn", "trainable": true, "dtype": "float32", "axis": [3], "momentum": 0.99, "epsilon": 0.001, "center": true, "scale": false, "beta_initializer": {"class_name": "Zeros", "config": {"dtype": "float32"}}, "gamma_initializer": {"class_name": "Ones", "config": {"dtype": "float32"}}, "moving_mean_initializer": {"class_name": "Zeros", "config": {"dtype": "float32"}}, "moving_variance_initializer": {"class_name": "Ones", "config": {"dtype": "float32"}}, "beta_regularizer": null, "gamma_regularizer": null, "beta_constraint": null, "gamma_constraint": null}, "inbound_nodes": [[["stem_br_214conv2d", 0, 0, {}]]]}, {"name": "stem_br_222conv2dbn", "class_name": "BatchNormalization", "config": {"name": "stem_br_222conv2dbn", "trainable": true, "dtype": "float32", "axis": [3], "momentum": 0.99, "epsilon": 0.001, "center": true, "scale": false, "beta_initializer": {"class_name": "Zeros", "config": {"dtype": "float32"}}, "gamma_initializer": {"class_name": "Ones", "config": {"dtype": "float32"}}, "moving_mean_initializer": {"class_name": "Zeros", "config": {"dtype": "float32"}}, "moving_variance_initializer": {"class_name": "Ones", "config": {"dtype": "float32"}}, "beta_regularizer": null, "gamma_regularizer": null, "beta_constraint": null, "gamma_constraint": null}, "inbound_nodes": [[["stem_br_222conv2d", 0, 0, {}]]]}, {"name": "stem_br_214conv2dact", "class_name": "Activation", "config": {"name": "stem_br_214conv2dact", "trainable": true, "dtype": "float32", "activation": "relu"}, "inbound_nodes": [[["stem_br_214conv2dbn", 0, 0, {}]]]}, {"name": "stem_br_222conv2dact", "class_name": "Activation", "config": {"name": "stem_br_222conv2dact", "trainable": true, "dtype": "float32", "activation": "relu"}, "inbound_nodes": [[["stem_br_222conv2dbn", 0, 0, {}]]]}, {"name": "stem_concat_2", "class_name": "Concatenate", "config": {"name": "stem_concat_2", "trainable": true, "dtype": "float32", "axis": 3}, "inbound_nodes": [[["stem_br_214conv2dact", 0, 0, {}], ["stem_br_222conv2dact", 0, 0, {}]]]}, {"name": "stem_br_31conv2d", "class_name": "Conv2D", "config": {"name": "stem_br_31conv2d", "trainable": true, "dtype": "float32", "filters": 192, "kernel_size": [3, 3], "strides": [1, 1], "padding": "valid", "data_format": "channels_last", "dilation_rate": [1, 1], "activation": "linear", "use_bias": false, "kernel_initializer": {"class_name": "GlorotUniform", "config": {"seed": null, "dtype": "float32"}}, "bias_initializer": {"class_name": "Zeros", "config": {"dtype": "float32"}}, "kernel_regularizer": null, "bias_regularizer": null, "activity_regularizer": null, "kernel_constraint": null, "bias_constraint": null}, "inbound_nodes": [[["stem_concat_2", 0, 0, {}]]]}, {"name": "stem_br_31conv2dbn", "class_name": "BatchNormalization", "config": {"name": "stem_br_31conv2dbn", "trainable": true, "dtype": "float32", "axis": [3], "momentum": 0.99, "epsilon": 0.001, "center": true, "scale": false, "beta_initializer": {"class_name": "Zeros", "config": {"dtype": "float32"}}, "gamma_initializer": {"class_name": "Ones", "config": {"dtype": "float32"}}, "moving_mean_initializer": {"class_name": "Zeros", "config": {"dtype": "float32"}}, "moving_variance_initializer": {"class_name": "Ones", "config": {"dtype": "float32"}}, "beta_regularizer": null, "gamma_regularizer": null, "beta_constraint": null, "gamma_constraint": null}, "inbound_nodes": [[["stem_br_31conv2d", 0, 0, {}]]]}, {"name": "stem_br_31conv2dact", "class_name": "Activation", "config": {"name": "stem_br_31conv2dact", "trainable": true, "dtype": "float32", "activation": "relu"}, "inbound_nodes": [[["stem_br_31conv2dbn", 0, 0, {}]]]}, {"name": "stem_br_32_maxpool_2", "class_name": "MaxPooling2D", "config": {"name": "stem_br_32_maxpool_2", "trainable": true, "dtype": "float32", "pool_size": [3, 3], "padding": "valid", "strides": [1, 1], "data_format": "channels_last"}, "inbound_nodes": [[["stem_concat_2", 0, 0, {}]]]}, {"name": "stem_concat_3", "class_name": "Concatenate", "config": {"name": "stem_concat_3", "trainable": true, "dtype": "float32", "axis": 3}, "inbound_nodes": [[["stem_br_31conv2dact", 0, 0, {}], ["stem_br_32_maxpool_2", 0, 0, {}]]]}, {"name": "incresA_1b2_1conv2d", "class_name": "Conv2D", "config": {"name": "incresA_1b2_1conv2d", "trainable": true, "dtype": "float32", "filters": 32, "kernel_size": [1, 1], "strides": [1, 1], "padding": "same", "data_format": "channels_last", "dilation_rate": [1, 1], "activation": "linear", "use_bias": false, "kernel_initializer": {"class_name": "GlorotUniform", "config": {"seed": null, "dtype": "float32"}}, "bias_initializer": {"class_name": "Zeros", "config": {"dtype": "float32"}}, "kernel_regularizer": null, "bias_regularizer": null, "activity_regularizer": null, "kernel_constraint": null, "bias_constraint": null}, "inbound_nodes": [[["stem_concat_3", 0, 0, {}]]]}, {"name": "incresA_1b2_1conv2dbn", "class_name": "BatchNormalization", "config": {"name": "incresA_1b2_1conv2dbn", "trainable": true, "dtype": "float32", "axis": [3], "momentum": 0.99, "epsilon": 0.001, "center": true, "scale": false, "beta_initializer": {"class_name": "Zeros", "config": {"dtype": "float32"}}, "gamma_initializer": {"class_name": "Ones", "config": {"dtype": "float32"}}, "moving_mean_initializer": {"class_name": "Zeros", "config": {"dtype": "float32"}}, "moving_variance_initializer": {"class_name": "Ones", "config": {"dtype": "float32"}}, "beta_regularizer": null, "gamma_regularizer": null, "beta_constraint": null, "gamma_constraint": null}, "inbound_nodes": [[["incresA_1b2_1conv2d", 0, 0, {}]]]}, {"name": "incresA_1b2_1conv2dact", "class_name": "Activation", "config": {"name": "incresA_1b2_1conv2dact", "trainable": true, "dtype": "float32", "activation": "relu"}, "inbound_nodes": [[["incresA_1b2_1conv2dbn", 0, 0, {}]]]}, {"name": "incresA_1b1_1conv2d", "class_name": "Conv2D", "config": {"name": "incresA_1b1_1conv2d", "trainable": true, "dtype": "float32", "filters": 32, "kernel_size": [1, 1], "strides": [1, 1], "padding": "same", "data_format": "channels_last", "dilation_rate": [1, 1], "activation": "linear", "use_bias": false, "kernel_initializer": {"class_name": "GlorotUniform", "config": {"seed": null, "dtype": "float32"}}, "bias_initializer": {"class_name": "Zeros", "config": {"dtype": "float32"}}, "kernel_regularizer": null, "bias_regularizer": null, "activity_regularizer": null, "kernel_constraint": null, "bias_constraint": null}, "inbound_nodes": [[["stem_concat_3", 0, 0, {}]]]}, {"name": "incresA_1b2_2conv2d", "class_name": "Conv2D", "config": {"name": "incresA_1b2_2conv2d", "trainable": true, "dtype": "float32", "filters": 48, "kernel_size": [3, 3], "strides": [1, 1], "padding": "same", "data_format": "channels_last", "dilation_rate": [1, 1], "activation": "linear", "use_bias": false, "kernel_initializer": {"class_name": "GlorotUniform", "config": {"seed": null, "dtype": "float32"}}, "bias_initializer": {"class_name": "Zeros", "config": {"dtype": "float32"}}, "kernel_regularizer": null, "bias_regularizer": null, "activity_regularizer": null, "kernel_constraint": null, "bias_constraint": null}, "inbound_nodes": [[["incresA_1b2_1conv2dact", 0, 0, {}]]]}, {"name": "incresA_1b1_1conv2dbn", "class_name": "BatchNormalization", "config": {"name": "incresA_1b1_1conv2dbn", "trainable": true, "dtype": "float32", "axis": [3], "momentum": 0.99, "epsilon": 0.001, "center": true, "scale": false, "beta_initializer": {"class_name": "Zeros", "config": {"dtype": "float32"}}, "gamma_initializer": {"class_name": "Ones", "config": {"dtype": "float32"}}, "moving_mean_initializer": {"class_name": "Zeros", "config": {"dtype": "float32"}}, "moving_variance_initializer": {"class_name": "Ones", "config": {"dtype": "float32"}}, "beta_regularizer": null, "gamma_regularizer": null, "beta_constraint": null, "gamma_constraint": null}, "inbound_nodes": [[["incresA_1b1_1conv2d", 0, 0, {}]]]}, {"name": "incresA_1b2_2conv2dbn", "class_name": "BatchNormalization", "config": {"name": "incresA_1b2_2conv2dbn", "trainable": true, "dtype": "float32", "axis": [3], "momentum": 0.99, "epsilon": 0.001, "center": true, "scale": false, "beta_initializer": {"class_name": "Zeros", "config": {"dtype": "float32"}}, "gamma_initializer": {"class_name": "Ones", "config": {"dtype": "float32"}}, "moving_mean_initializer": {"class_name": "Zeros", "config": {"dtype": "float32"}}, "moving_variance_initializer": {"class_name": "Ones", "config": {"dtype": "float32"}}, "beta_regularizer": null, "gamma_regularizer": null, "beta_constraint": null, "gamma_constraint": null}, "inbound_nodes": [[["incresA_1b2_2conv2d", 0, 0, {}]]]}, {"name": "incresA_1b1_1conv2dact", "class_name": "Activation", "config": {"name": "incresA_1b1_1conv2dact", "trainable": true, "dtype": "float32", "activation": "relu"}, "inbound_nodes": [[["incresA_1b1_1conv2dbn", 0, 0, {}]]]}, {"name": "incresA_1b2_2conv2dact", "class_name": "Activation", "config": {"name": "incresA_1b2_2conv2dact", "trainable": true, "dtype": "float32", "activation": "relu"}, "inbound_nodes": [[["incresA_1b2_2conv2dbn", 0, 0, {}]]]}, {"name": "incresA_1b0conv2d", "class_name": "Conv2D", "config": {"name": "incresA_1b0conv2d", "trainable": true, "dtype": "float32", "filters": 32, "kernel_size": [1, 1], "strides": [1, 1], "padding": "same", "data_format": "channels_last", "dilation_rate": [1, 1], "activation": "linear", "use_bias": false, "kernel_initializer": {"class_name": "GlorotUniform", "config": {"seed": null, "dtype": "float32"}}, "bias_initializer": {"class_name": "Zeros", "config": {"dtype": "float32"}}, "kernel_regularizer": null, "bias_regularizer": null, "activity_regularizer": null, "kernel_constraint": null, "bias_constraint": null}, "inbound_nodes": [[["stem_concat_3", 0, 0, {}]]]}, {"name": "incresA_1b1_2conv2d", "class_name": "Conv2D", "config": {"name": "incresA_1b1_2conv2d", "trainable": true, "dtype": "float32", "filters": 32, "kernel_size": [3, 3], "strides": [1, 1], "padding": "same", "data_format": "channels_last", "dilation_rate": [1, 1], "activation": "linear", "use_bias": false, "kernel_initializer": {"class_name": "GlorotUniform", "config": {"seed": null, "dtype": "float32"}}, "bias_initializer": {"class_name": "Zeros", "config": {"dtype": "float32"}}, "kernel_regularizer": null, "bias_regularizer": null, "activity_regularizer": null, "kernel_constraint": null, "bias_constraint": null}, "inbound_nodes": [[["incresA_1b1_1conv2dact", 0, 0, {}]]]}, {"name": "incresA_1b2_3conv2d", "class_name": "Conv2D", "config": {"name": "incresA_1b2_3conv2d", "trainable": true, "dtype": "float32", "filters": 64, "kernel_size": [3, 3], "strides": [1, 1], "padding": "same", "data_format": "channels_last", "dilation_rate": [1, 1], "activation": "linear", "use_bias": false, "kernel_initializer": {"class_name": "GlorotUniform", "config": {"seed": null, "dtype": "float32"}}, "bias_initializer": {"class_name": "Zeros", "config": {"dtype": "float32"}}, "kernel_regularizer": null, "bias_regularizer": null, "activity_regularizer": null, "kernel_constraint": null, "bias_constraint": null}, "inbound_nodes": [[["incresA_1b2_2conv2dact", 0, 0, {}]]]}, {"name": "incresA_1b0conv2dbn", "class_name": "BatchNormalization", "config": {"name": "incresA_1b0conv2dbn", "trainable": true, "dtype": "float32", "axis": [3], "momentum": 0.99, "epsilon": 0.001, "center": true, "scale": false, "beta_initializer": {"class_name": "Zeros", "config": {"dtype": "float32"}}, "gamma_initializer": {"class_name": "Ones", "config": {"dtype": "float32"}}, "moving_mean_initializer": {"class_name": "Zeros", "config": {"dtype": "float32"}}, "moving_variance_initializer": {"class_name": "Ones", "config": {"dtype": "float32"}}, "beta_regularizer": null, "gamma_regularizer": null, "beta_constraint": null, "gamma_constraint": null}, "inbound_nodes": [[["incresA_1b0conv2d", 0, 0, {}]]]}, {"name": "incresA_1b1_2conv2dbn", "class_name": "BatchNormalization", "config": {"name": "incresA_1b1_2conv2dbn", "trainable": true, "dtype": "float32", "axis": [3], "momentum": 0.99, "epsilon": 0.001, "center": true, "scale": false, "beta_initializer": {"class_name": "Zeros", "config": {"dtype": "float32"}}, "gamma_initializer": {"class_name": "Ones", "config": {"dtype": "float32"}}, "moving_mean_initializer": {"class_name": "Zeros", "config": {"dtype": "float32"}}, "moving_variance_initializer": {"class_name": "Ones", "config": {"dtype": "float32"}}, "beta_regularizer": null, "gamma_regularizer": null, "beta_constraint": null, "gamma_constraint": null}, "inbound_nodes": [[["incresA_1b1_2conv2d", 0, 0, {}]]]}, {"name": "incresA_1b2_3conv2dbn", "class_name": "BatchNormalization", "config": {"name": "incresA_1b2_3conv2dbn", "trainable": true, "dtype": "float32", "axis": [3], "momentum": 0.99, "epsilon": 0.001, "center": true, "scale": false, "beta_initializer": {"class_name": "Zeros", "config": {"dtype": "float32"}}, "gamma_initializer": {"class_name": "Ones", "config": {"dtype": "float32"}}, "moving_mean_initializer": {"class_name": "Zeros", "config": {"dtype": "float32"}}, "moving_variance_initializer": {"class_name": "Ones", "config": {"dtype": "float32"}}, "beta_regularizer": null, "gamma_regularizer": null, "beta_constraint": null, "gamma_constraint": null}, "inbound_nodes": [[["incresA_1b2_3conv2d", 0, 0, {}]]]}, {"name": "incresA_1b0conv2dact", "class_name": "Activation", "config": {"name": "incresA_1b0conv2dact", "trainable": true, "dtype": "float32", "activation": "relu"}, "inbound_nodes": [[["incresA_1b0conv2dbn", 0, 0, {}]]]}, {"name": "incresA_1b1_2conv2dact", "class_name": "Activation", "config": {"name": "incresA_1b1_2conv2dact", "trainable": true, "dtype": "float32", "activation": "relu"}, "inbound_nodes": [[["incresA_1b1_2conv2dbn", 0, 0, {}]]]}, {"name": "incresA_1b2_3conv2dact", "class_name": "Activation", "config": {"name": "incresA_1b2_3conv2dact", "trainable": true, "dtype": "float32", "activation": "relu"}, "inbound_nodes": [[["incresA_1b2_3conv2dbn", 0, 0, {}]]]}, {"name": "incresA_1_concat", "class_name": "Concatenate", "config": {"name": "incresA_1_concat", "trainable": true, "dtype": "float32", "axis": 3}, "inbound_nodes": [[["incresA_1b0conv2dact", 0, 0, {}], ["incresA_1b1_2conv2dact", 0, 0, {}], ["incresA_1b2_3conv2dact", 0, 0, {}]]]}, {"name": "incresA_1filt_exp_1x1conv2d", "class_name": "Conv2D", "config": {"name": "incresA_1filt_exp_1x1conv2d", "trainable": true, "dtype": "float32", "filters": 384, "kernel_size": [1, 1], "strides": [1, 1], "padding": "same", "data_format": "channels_last", "dilation_rate": [1, 1], "activation": "linear", "use_bias": false, "kernel_initializer": {"class_name": "GlorotUniform", "config": {"seed": null, "dtype": "float32"}}, "bias_initializer": {"class_name": "Zeros", "config": {"dtype": "float32"}}, "kernel_regularizer": null, "bias_regularizer": null, "activity_regularizer": null, "kernel_constraint": null, "bias_constraint": null}, "inbound_nodes": [[["incresA_1_concat", 0, 0, {}]]]}, {"name": "incresA_1filt_exp_1x1conv2dbn", "class_name": "BatchNormalization", "config": {"name": "incresA_1filt_exp_1x1conv2dbn", "trainable": true, "dtype": "float32", "axis": [3], "momentum": 0.99, "epsilon": 0.001, "center": true, "scale": false, "beta_initializer": {"class_name": "Zeros", "config": {"dtype": "float32"}}, "gamma_initializer": {"class_name": "Ones", "config": {"dtype": "float32"}}, "moving_mean_initializer": {"class_name": "Zeros", "config": {"dtype": "float32"}}, "moving_variance_initializer": {"class_name": "Ones", "config": {"dtype": "float32"}}, "beta_regularizer": null, "gamma_regularizer": null, "beta_constraint": null, "gamma_constraint": null}, "inbound_nodes": [[["incresA_1filt_exp_1x1conv2d", 0, 0, {}]]]}, {"name": "incresA_1act_scaling", "class_name": "Lambda", "config": {"name": "incresA_1act_scaling", "trainable": true, "dtype": "float32", "function": ["4wIAAAAAAAAAAgAAAAMAAABTAAAAcxQAAAB8AGQBGQB8AGQCGQB8ARQAFwBTACkDTukAAAAA6QEA\nAACpACkC2gZpbnB1dHPaBXNjYWxlcgMAAAByAwAAAPoePGlweXRob24taW5wdXQtMS1kZGI3YWQx\nZTc0MzU+2gg8bGFtYmRhPhUAAABzAAAAAA==\n", null, null], "module": "__main__", "function_type": "lambda", "output_shape": [21, 14, 384], "output_shape_type": "raw", "output_shape_module": null, "arguments": {"scale": 0.15}}, "inbound_nodes": [[["stem_concat_3", 0, 0, {}], ["incresA_1filt_exp_1x1conv2dbn", 0, 0, {}]]]}, {"name": "incresA_2b2_1conv2d", "class_name": "Conv2D", "config": {"name": "incresA_2b2_1conv2d", "trainable": true, "dtype": "float32", "filters": 32, "kernel_size": [1, 1], "strides": [1, 1], "padding": "same", "data_format": "channels_last", "dilation_rate": [1, 1], "activation": "linear", "use_bias": false, "kernel_initializer": {"class_name": "GlorotUniform", "config": {"seed": null, "dtype": "float32"}}, "bias_initializer": {"class_name": "Zeros", "config": {"dtype": "float32"}}, "kernel_regularizer": null, "bias_regularizer": null, "activity_regularizer": null, "kernel_constraint": null, "bias_constraint": null}, "inbound_nodes": [[["incresA_1act_scaling", 0, 0, {}]]]}, {"name": "incresA_2b2_1conv2dbn", "class_name": "BatchNormalization", "config": {"name": "incresA_2b2_1conv2dbn", "trainable": true, "dtype": "float32", "axis": [3], "momentum": 0.99, "epsilon": 0.001, "center": true, "scale": false, "beta_initializer": {"class_name": "Zeros", "config": {"dtype": "float32"}}, "gamma_initializer": {"class_name": "Ones", "config": {"dtype": "float32"}}, "moving_mean_initializer": {"class_name": "Zeros", "config": {"dtype": "float32"}}, "moving_variance_initializer": {"class_name": "Ones", "config": {"dtype": "float32"}}, "beta_regularizer": null, "gamma_regularizer": null, "beta_constraint": null, "gamma_constraint": null}, "inbound_nodes": [[["incresA_2b2_1conv2d", 0, 0, {}]]]}, {"name": "incresA_2b2_1conv2dact", "class_name": "Activation", "config": {"name": "incresA_2b2_1conv2dact", "trainable": true, "dtype": "float32", "activation": "relu"}, "inbound_nodes": [[["incresA_2b2_1conv2dbn", 0, 0, {}]]]}, {"name": "incresA_2b1_1conv2d", "class_name": "Conv2D", "config": {"name": "incresA_2b1_1conv2d", "trainable": true, "dtype": "float32", "filters": 32, "kernel_size": [1, 1], "strides": [1, 1], "padding": "same", "data_format": "channels_last", "dilation_rate": [1, 1], "activation": "linear", "use_bias": false, "kernel_initializer": {"class_name": "GlorotUniform", "config": {"seed": null, "dtype": "float32"}}, "bias_initializer": {"class_name": "Zeros", "config": {"dtype": "float32"}}, "kernel_regularizer": null, "bias_regularizer": null, "activity_regularizer": null, "kernel_constraint": null, "bias_constraint": null}, "inbound_nodes": [[["incresA_1act_scaling", 0, 0, {}]]]}, {"name": "incresA_2b2_2conv2d", "class_name": "Conv2D", "config": {"name": "incresA_2b2_2conv2d", "trainable": true, "dtype": "float32", "filters": 48, "kernel_size": [3, 3], "strides": [1, 1], "padding": "same", "data_format": "channels_last", "dilation_rate": [1, 1], "activation": "linear", "use_bias": false, "kernel_initializer": {"class_name": "GlorotUniform", "config": {"seed": null, "dtype": "float32"}}, "bias_initializer": {"class_name": "Zeros", "config": {"dtype": "float32"}}, "kernel_regularizer": null, "bias_regularizer": null, "activity_regularizer": null, "kernel_constraint": null, "bias_constraint": null}, "inbound_nodes": [[["incresA_2b2_1conv2dact", 0, 0, {}]]]}, {"name": "incresA_2b1_1conv2dbn", "class_name": "BatchNormalization", "config": {"name": "incresA_2b1_1conv2dbn", "trainable": true, "dtype": "float32", "axis": [3], "momentum": 0.99, "epsilon": 0.001, "center": true, "scale": false, "beta_initializer": {"class_name": "Zeros", "config": {"dtype": "float32"}}, "gamma_initializer": {"class_name": "Ones", "config": {"dtype": "float32"}}, "moving_mean_initializer": {"class_name": "Zeros", "config": {"dtype": "float32"}}, "moving_variance_initializer": {"class_name": "Ones", "config": {"dtype": "float32"}}, "beta_regularizer": null, "gamma_regularizer": null, "beta_constraint": null, "gamma_constraint": null}, "inbound_nodes": [[["incresA_2b1_1conv2d", 0, 0, {}]]]}, {"name": "incresA_2b2_2conv2dbn", "class_name": "BatchNormalization", "config": {"name": "incresA_2b2_2conv2dbn", "trainable": true, "dtype": "float32", "axis": [3], "momentum": 0.99, "epsilon": 0.001, "center": true, "scale": false, "beta_initializer": {"class_name": "Zeros", "config": {"dtype": "float32"}}, "gamma_initializer": {"class_name": "Ones", "config": {"dtype": "float32"}}, "moving_mean_initializer": {"class_name": "Zeros", "config": {"dtype": "float32"}}, "moving_variance_initializer": {"class_name": "Ones", "config": {"dtype": "float32"}}, "beta_regularizer": null, "gamma_regularizer": null, "beta_constraint": null, "gamma_constraint": null}, "inbound_nodes": [[["incresA_2b2_2conv2d", 0, 0, {}]]]}, {"name": "incresA_2b1_1conv2dact", "class_name": "Activation", "config": {"name": "incresA_2b1_1conv2dact", "trainable": true, "dtype": "float32", "activation": "relu"}, "inbound_nodes": [[["incresA_2b1_1conv2dbn", 0, 0, {}]]]}, {"name": "incresA_2b2_2conv2dact", "class_name": "Activation", "config": {"name": "incresA_2b2_2conv2dact", "trainable": true, "dtype": "float32", "activation": "relu"}, "inbound_nodes": [[["incresA_2b2_2conv2dbn", 0, 0, {}]]]}, {"name": "incresA_2b0conv2d", "class_name": "Conv2D", "config": {"name": "incresA_2b0conv2d", "trainable": true, "dtype": "float32", "filters": 32, "kernel_size": [1, 1], "strides": [1, 1], "padding": "same", "data_format": "channels_last", "dilation_rate": [1, 1], "activation": "linear", "use_bias": false, "kernel_initializer": {"class_name": "GlorotUniform", "config": {"seed": null, "dtype": "float32"}}, "bias_initializer": {"class_name": "Zeros", "config": {"dtype": "float32"}}, "kernel_regularizer": null, "bias_regularizer": null, "activity_regularizer": null, "kernel_constraint": null, "bias_constraint": null}, "inbound_nodes": [[["incresA_1act_scaling", 0, 0, {}]]]}, {"name": "incresA_2b1_2conv2d", "class_name": "Conv2D", "config": {"name": "incresA_2b1_2conv2d", "trainable": true, "dtype": "float32", "filters": 32, "kernel_size": [3, 3], "strides": [1, 1], "padding": "same", "data_format": "channels_last", "dilation_rate": [1, 1], "activation": "linear", "use_bias": false, "kernel_initializer": {"class_name": "GlorotUniform", "config": {"seed": null, "dtype": "float32"}}, "bias_initializer": {"class_name": "Zeros", "config": {"dtype": "float32"}}, "kernel_regularizer": null, "bias_regularizer": null, "activity_regularizer": null, "kernel_constraint": null, "bias_constraint": null}, "inbound_nodes": [[["incresA_2b1_1conv2dact", 0, 0, {}]]]}, {"name": "incresA_2b2_3conv2d", "class_name": "Conv2D", "config": {"name": "incresA_2b2_3conv2d", "trainable": true, "dtype": "float32", "filters": 64, "kernel_size": [3, 3], "strides": [1, 1], "padding": "same", "data_format": "channels_last", "dilation_rate": [1, 1], "activation": "linear", "use_bias": false, "kernel_initializer": {"class_name": "GlorotUniform", "config": {"seed": null, "dtype": "float32"}}, "bias_initializer": {"class_name": "Zeros", "config": {"dtype": "float32"}}, "kernel_regularizer": null, "bias_regularizer": null, "activity_regularizer": null, "kernel_constraint": null, "bias_constraint": null}, "inbound_nodes": [[["incresA_2b2_2conv2dact", 0, 0, {}]]]}, {"name": "incresA_2b0conv2dbn", "class_name": "BatchNormalization", "config": {"name": "incresA_2b0conv2dbn", "trainable": true, "dtype": "float32", "axis": [3], "momentum": 0.99, "epsilon": 0.001, "center": true, "scale": false, "beta_initializer": {"class_name": "Zeros", "config": {"dtype": "float32"}}, "gamma_initializer": {"class_name": "Ones", "config": {"dtype": "float32"}}, "moving_mean_initializer": {"class_name": "Zeros", "config": {"dtype": "float32"}}, "moving_variance_initializer": {"class_name": "Ones", "config": {"dtype": "float32"}}, "beta_regularizer": null, "gamma_regularizer": null, "beta_constraint": null, "gamma_constraint": null}, "inbound_nodes": [[["incresA_2b0conv2d", 0, 0, {}]]]}, {"name": "incresA_2b1_2conv2dbn", "class_name": "BatchNormalization", "config": {"name": "incresA_2b1_2conv2dbn", "trainable": true, "dtype": "float32", "axis": [3], "momentum": 0.99, "epsilon": 0.001, "center": true, "scale": false, "beta_initializer": {"class_name": "Zeros", "config": {"dtype": "float32"}}, "gamma_initializer": {"class_name": "Ones", "config": {"dtype": "float32"}}, "moving_mean_initializer": {"class_name": "Zeros", "config": {"dtype": "float32"}}, "moving_variance_initializer": {"class_name": "Ones", "config": {"dtype": "float32"}}, "beta_regularizer": null, "gamma_regularizer": null, "beta_constraint": null, "gamma_constraint": null}, "inbound_nodes": [[["incresA_2b1_2conv2d", 0, 0, {}]]]}, {"name": "incresA_2b2_3conv2dbn", "class_name": "BatchNormalization", "config": {"name": "incresA_2b2_3conv2dbn", "trainable": true, "dtype": "float32", "axis": [3], "momentum": 0.99, "epsilon": 0.001, "center": true, "scale": false, "beta_initializer": {"class_name": "Zeros", "config": {"dtype": "float32"}}, "gamma_initializer": {"class_name": "Ones", "config": {"dtype": "float32"}}, "moving_mean_initializer": {"class_name": "Zeros", "config": {"dtype": "float32"}}, "moving_variance_initializer": {"class_name": "Ones", "config": {"dtype": "float32"}}, "beta_regularizer": null, "gamma_regularizer": null, "beta_constraint": null, "gamma_constraint": null}, "inbound_nodes": [[["incresA_2b2_3conv2d", 0, 0, {}]]]}, {"name": "incresA_2b0conv2dact", "class_name": "Activation", "config": {"name": "incresA_2b0conv2dact", "trainable": true, "dtype": "float32", "activation": "relu"}, "inbound_nodes": [[["incresA_2b0conv2dbn", 0, 0, {}]]]}, {"name": "incresA_2b1_2conv2dact", "class_name": "Activation", "config": {"name": "incresA_2b1_2conv2dact", "trainable": true, "dtype": "float32", "activation": "relu"}, "inbound_nodes": [[["incresA_2b1_2conv2dbn", 0, 0, {}]]]}, {"name": "incresA_2b2_3conv2dact", "class_name": "Activation", "config": {"name": "incresA_2b2_3conv2dact", "trainable": true, "dtype": "float32", "activation": "relu"}, "inbound_nodes": [[["incresA_2b2_3conv2dbn", 0, 0, {}]]]}, {"name": "incresA_2_concat", "class_name": "Concatenate", "config": {"name": "incresA_2_concat", "trainable": true, "dtype": "float32", "axis": 3}, "inbound_nodes": [[["incresA_2b0conv2dact", 0, 0, {}], ["incresA_2b1_2conv2dact", 0, 0, {}], ["incresA_2b2_3conv2dact", 0, 0, {}]]]}, {"name": "incresA_2filt_exp_1x1conv2d", "class_name": "Conv2D", "config": {"name": "incresA_2filt_exp_1x1conv2d", "trainable": true, "dtype": "float32", "filters": 384, "kernel_size": [1, 1], "strides": [1, 1], "padding": "same", "data_format": "channels_last", "dilation_rate": [1, 1], "activation": "linear", "use_bias": false, "kernel_initializer": {"class_name": "GlorotUniform", "config": {"seed": null, "dtype": "float32"}}, "bias_initializer": {"class_name": "Zeros", "config": {"dtype": "float32"}}, "kernel_regularizer": null, "bias_regularizer": null, "activity_regularizer": null, "kernel_constraint": null, "bias_constraint": null}, "inbound_nodes": [[["incresA_2_concat", 0, 0, {}]]]}, {"name": "incresA_2filt_exp_1x1conv2dbn", "class_name": "BatchNormalization", "config": {"name": "incresA_2filt_exp_1x1conv2dbn", "trainable": true, "dtype": "float32", "axis": [3], "momentum": 0.99, "epsilon": 0.001, "center": true, "scale": false, "beta_initializer": {"class_name": "Zeros", "config": {"dtype": "float32"}}, "gamma_initializer": {"class_name": "Ones", "config": {"dtype": "float32"}}, "moving_mean_initializer": {"class_name": "Zeros", "config": {"dtype": "float32"}}, "moving_variance_initializer": {"class_name": "Ones", "config": {"dtype": "float32"}}, "beta_regularizer": null, "gamma_regularizer": null, "beta_constraint": null, "gamma_constraint": null}, "inbound_nodes": [[["incresA_2filt_exp_1x1conv2d", 0, 0, {}]]]}, {"name": "incresA_2act_scaling", "class_name": "Lambda", "config": {"name": "incresA_2act_scaling", "trainable": true, "dtype": "float32", "function": ["4wIAAAAAAAAAAgAAAAMAAABTAAAAcxQAAAB8AGQBGQB8AGQCGQB8ARQAFwBTACkDTukAAAAA6QEA\nAACpACkC2gZpbnB1dHPaBXNjYWxlcgMAAAByAwAAAPoePGlweXRob24taW5wdXQtMS1kZGI3YWQx\nZTc0MzU+2gg8bGFtYmRhPhUAAABzAAAAAA==\n", null, null], "module": "__main__", "function_type": "lambda", "output_shape": [21, 14, 384], "output_shape_type": "raw", "output_shape_module": null, "arguments": {"scale": 0.15}}, "inbound_nodes": [[["incresA_1act_scaling", 0, 0, {}], ["incresA_2filt_exp_1x1conv2dbn", 0, 0, {}]]]}, {"name": "incresA_3b2_1conv2d", "class_name": "Conv2D", "config": {"name": "incresA_3b2_1conv2d", "trainable": true, "dtype": "float32", "filters": 32, "kernel_size": [1, 1], "strides": [1, 1], "padding": "same", "data_format": "channels_last", "dilation_rate": [1, 1], "activation": "linear", "use_bias": false, "kernel_initializer": {"class_name": "GlorotUniform", "config": {"seed": null, "dtype": "float32"}}, "bias_initializer": {"class_name": "Zeros", "config": {"dtype": "float32"}}, "kernel_regularizer": null, "bias_regularizer": null, "activity_regularizer": null, "kernel_constraint": null, "bias_constraint": null}, "inbound_nodes": [[["incresA_2act_scaling", 0, 0, {}]]]}, {"name": "incresA_3b2_1conv2dbn", "class_name": "BatchNormalization", "config": {"name": "incresA_3b2_1conv2dbn", "trainable": true, "dtype": "float32", "axis": [3], "momentum": 0.99, "epsilon": 0.001, "center": true, "scale": false, "beta_initializer": {"class_name": "Zeros", "config": {"dtype": "float32"}}, "gamma_initializer": {"class_name": "Ones", "config": {"dtype": "float32"}}, "moving_mean_initializer": {"class_name": "Zeros", "config": {"dtype": "float32"}}, "moving_variance_initializer": {"class_name": "Ones", "config": {"dtype": "float32"}}, "beta_regularizer": null, "gamma_regularizer": null, "beta_constraint": null, "gamma_constraint": null}, "inbound_nodes": [[["incresA_3b2_1conv2d", 0, 0, {}]]]}, {"name": "incresA_3b2_1conv2dact", "class_name": "Activation", "config": {"name": "incresA_3b2_1conv2dact", "trainable": true, "dtype": "float32", "activation": "relu"}, "inbound_nodes": [[["incresA_3b2_1conv2dbn", 0, 0, {}]]]}, {"name": "incresA_3b1_1conv2d", "class_name": "Conv2D", "config": {"name": "incresA_3b1_1conv2d", "trainable": true, "dtype": "float32", "filters": 32, "kernel_size": [1, 1], "strides": [1, 1], "padding": "same", "data_format": "channels_last", "dilation_rate": [1, 1], "activation": "linear", "use_bias": false, "kernel_initializer": {"class_name": "GlorotUniform", "config": {"seed": null, "dtype": "float32"}}, "bias_initializer": {"class_name": "Zeros", "config": {"dtype": "float32"}}, "kernel_regularizer": null, "bias_regularizer": null, "activity_regularizer": null, "kernel_constraint": null, "bias_constraint": null}, "inbound_nodes": [[["incresA_2act_scaling", 0, 0, {}]]]}, {"name": "incresA_3b2_2conv2d", "class_name": "Conv2D", "config": {"name": "incresA_3b2_2conv2d", "trainable": true, "dtype": "float32", "filters": 48, "kernel_size": [3, 3], "strides": [1, 1], "padding": "same", "data_format": "channels_last", "dilation_rate": [1, 1], "activation": "linear", "use_bias": false, "kernel_initializer": {"class_name": "GlorotUniform", "config": {"seed": null, "dtype": "float32"}}, "bias_initializer": {"class_name": "Zeros", "config": {"dtype": "float32"}}, "kernel_regularizer": null, "bias_regularizer": null, "activity_regularizer": null, "kernel_constraint": null, "bias_constraint": null}, "inbound_nodes": [[["incresA_3b2_1conv2dact", 0, 0, {}]]]}, {"name": "incresA_3b1_1conv2dbn", "class_name": "BatchNormalization", "config": {"name": "incresA_3b1_1conv2dbn", "trainable": true, "dtype": "float32", "axis": [3], "momentum": 0.99, "epsilon": 0.001, "center": true, "scale": false, "beta_initializer": {"class_name": "Zeros", "config": {"dtype": "float32"}}, "gamma_initializer": {"class_name": "Ones", "config": {"dtype": "float32"}}, "moving_mean_initializer": {"class_name": "Zeros", "config": {"dtype": "float32"}}, "moving_variance_initializer": {"class_name": "Ones", "config": {"dtype": "float32"}}, "beta_regularizer": null, "gamma_regularizer": null, "beta_constraint": null, "gamma_constraint": null}, "inbound_nodes": [[["incresA_3b1_1conv2d", 0, 0, {}]]]}, {"name": "incresA_3b2_2conv2dbn", "class_name": "BatchNormalization", "config": {"name": "incresA_3b2_2conv2dbn", "trainable": true, "dtype": "float32", "axis": [3], "momentum": 0.99, "epsilon": 0.001, "center": true, "scale": false, "beta_initializer": {"class_name": "Zeros", "config": {"dtype": "float32"}}, "gamma_initializer": {"class_name": "Ones", "config": {"dtype": "float32"}}, "moving_mean_initializer": {"class_name": "Zeros", "config": {"dtype": "float32"}}, "moving_variance_initializer": {"class_name": "Ones", "config": {"dtype": "float32"}}, "beta_regularizer": null, "gamma_regularizer": null, "beta_constraint": null, "gamma_constraint": null}, "inbound_nodes": [[["incresA_3b2_2conv2d", 0, 0, {}]]]}, {"name": "incresA_3b1_1conv2dact", "class_name": "Activation", "config": {"name": "incresA_3b1_1conv2dact", "trainable": true, "dtype": "float32", "activation": "relu"}, "inbound_nodes": [[["incresA_3b1_1conv2dbn", 0, 0, {}]]]}, {"name": "incresA_3b2_2conv2dact", "class_name": "Activation", "config": {"name": "incresA_3b2_2conv2dact", "trainable": true, "dtype": "float32", "activation": "relu"}, "inbound_nodes": [[["incresA_3b2_2conv2dbn", 0, 0, {}]]]}, {"name": "incresA_3b0conv2d", "class_name": "Conv2D", "config": {"name": "incresA_3b0conv2d", "trainable": true, "dtype": "float32", "filters": 32, "kernel_size": [1, 1], "strides": [1, 1], "padding": "same", "data_format": "channels_last", "dilation_rate": [1, 1], "activation": "linear", "use_bias": false, "kernel_initializer": {"class_name": "GlorotUniform", "config": {"seed": null, "dtype": "float32"}}, "bias_initializer": {"class_name": "Zeros", "config": {"dtype": "float32"}}, "kernel_regularizer": null, "bias_regularizer": null, "activity_regularizer": null, "kernel_constraint": null, "bias_constraint": null}, "inbound_nodes": [[["incresA_2act_scaling", 0, 0, {}]]]}, {"name": "incresA_3b1_2conv2d", "class_name": "Conv2D", "config": {"name": "incresA_3b1_2conv2d", "trainable": true, "dtype": "float32", "filters": 32, "kernel_size": [3, 3], "strides": [1, 1], "padding": "same", "data_format": "channels_last", "dilation_rate": [1, 1], "activation": "linear", "use_bias": false, "kernel_initializer": {"class_name": "GlorotUniform", "config": {"seed": null, "dtype": "float32"}}, "bias_initializer": {"class_name": "Zeros", "config": {"dtype": "float32"}}, "kernel_regularizer": null, "bias_regularizer": null, "activity_regularizer": null, "kernel_constraint": null, "bias_constraint": null}, "inbound_nodes": [[["incresA_3b1_1conv2dact", 0, 0, {}]]]}, {"name": "incresA_3b2_3conv2d", "class_name": "Conv2D", "config": {"name": "incresA_3b2_3conv2d", "trainable": true, "dtype": "float32", "filters": 64, "kernel_size": [3, 3], "strides": [1, 1], "padding": "same", "data_format": "channels_last", "dilation_rate": [1, 1], "activation": "linear", "use_bias": false, "kernel_initializer": {"class_name": "GlorotUniform", "config": {"seed": null, "dtype": "float32"}}, "bias_initializer": {"class_name": "Zeros", "config": {"dtype": "float32"}}, "kernel_regularizer": null, "bias_regularizer": null, "activity_regularizer": null, "kernel_constraint": null, "bias_constraint": null}, "inbound_nodes": [[["incresA_3b2_2conv2dact", 0, 0, {}]]]}, {"name": "incresA_3b0conv2dbn", "class_name": "BatchNormalization", "config": {"name": "incresA_3b0conv2dbn", "trainable": true, "dtype": "float32", "axis": [3], "momentum": 0.99, "epsilon": 0.001, "center": true, "scale": false, "beta_initializer": {"class_name": "Zeros", "config": {"dtype": "float32"}}, "gamma_initializer": {"class_name": "Ones", "config": {"dtype": "float32"}}, "moving_mean_initializer": {"class_name": "Zeros", "config": {"dtype": "float32"}}, "moving_variance_initializer": {"class_name": "Ones", "config": {"dtype": "float32"}}, "beta_regularizer": null, "gamma_regularizer": null, "beta_constraint": null, "gamma_constraint": null}, "inbound_nodes": [[["incresA_3b0conv2d", 0, 0, {}]]]}, {"name": "incresA_3b1_2conv2dbn", "class_name": "BatchNormalization", "config": {"name": "incresA_3b1_2conv2dbn", "trainable": true, "dtype": "float32", "axis": [3], "momentum": 0.99, "epsilon": 0.001, "center": true, "scale": false, "beta_initializer": {"class_name": "Zeros", "config": {"dtype": "float32"}}, "gamma_initializer": {"class_name": "Ones", "config": {"dtype": "float32"}}, "moving_mean_initializer": {"class_name": "Zeros", "config": {"dtype": "float32"}}, "moving_variance_initializer": {"class_name": "Ones", "config": {"dtype": "float32"}}, "beta_regularizer": null, "gamma_regularizer": null, "beta_constraint": null, "gamma_constraint": null}, "inbound_nodes": [[["incresA_3b1_2conv2d", 0, 0, {}]]]}, {"name": "incresA_3b2_3conv2dbn", "class_name": "BatchNormalization", "config": {"name": "incresA_3b2_3conv2dbn", "trainable": true, "dtype": "float32", "axis": [3], "momentum": 0.99, "epsilon": 0.001, "center": true, "scale": false, "beta_initializer": {"class_name": "Zeros", "config": {"dtype": "float32"}}, "gamma_initializer": {"class_name": "Ones", "config": {"dtype": "float32"}}, "moving_mean_initializer": {"class_name": "Zeros", "config": {"dtype": "float32"}}, "moving_variance_initializer": {"class_name": "Ones", "config": {"dtype": "float32"}}, "beta_regularizer": null, "gamma_regularizer": null, "beta_constraint": null, "gamma_constraint": null}, "inbound_nodes": [[["incresA_3b2_3conv2d", 0, 0, {}]]]}, {"name": "incresA_3b0conv2dact", "class_name": "Activation", "config": {"name": "incresA_3b0conv2dact", "trainable": true, "dtype": "float32", "activation": "relu"}, "inbound_nodes": [[["incresA_3b0conv2dbn", 0, 0, {}]]]}, {"name": "incresA_3b1_2conv2dact", "class_name": "Activation", "config": {"name": "incresA_3b1_2conv2dact", "trainable": true, "dtype": "float32", "activation": "relu"}, "inbound_nodes": [[["incresA_3b1_2conv2dbn", 0, 0, {}]]]}, {"name": "incresA_3b2_3conv2dact", "class_name": "Activation", "config": {"name": "incresA_3b2_3conv2dact", "trainable": true, "dtype": "float32", "activation": "relu"}, "inbound_nodes": [[["incresA_3b2_3conv2dbn", 0, 0, {}]]]}, {"name": "incresA_3_concat", "class_name": "Concatenate", "config": {"name": "incresA_3_concat", "trainable": true, "dtype": "float32", "axis": 3}, "inbound_nodes": [[["incresA_3b0conv2dact", 0, 0, {}], ["incresA_3b1_2conv2dact", 0, 0, {}], ["incresA_3b2_3conv2dact", 0, 0, {}]]]}, {"name": "incresA_3filt_exp_1x1conv2d", "class_name": "Conv2D", "config": {"name": "incresA_3filt_exp_1x1conv2d", "trainable": true, "dtype": "float32", "filters": 384, "kernel_size": [1, 1], "strides": [1, 1], "padding": "same", "data_format": "channels_last", "dilation_rate": [1, 1], "activation": "linear", "use_bias": false, "kernel_initializer": {"class_name": "GlorotUniform", "config": {"seed": null, "dtype": "float32"}}, "bias_initializer": {"class_name": "Zeros", "config": {"dtype": "float32"}}, "kernel_regularizer": null, "bias_regularizer": null, "activity_regularizer": null, "kernel_constraint": null, "bias_constraint": null}, "inbound_nodes": [[["incresA_3_concat", 0, 0, {}]]]}, {"name": "incresA_3filt_exp_1x1conv2dbn", "class_name": "BatchNormalization", "config": {"name": "incresA_3filt_exp_1x1conv2dbn", "trainable": true, "dtype": "float32", "axis": [3], "momentum": 0.99, "epsilon": 0.001, "center": true, "scale": false, "beta_initializer": {"class_name": "Zeros", "config": {"dtype": "float32"}}, "gamma_initializer": {"class_name": "Ones", "config": {"dtype": "float32"}}, "moving_mean_initializer": {"class_name": "Zeros", "config": {"dtype": "float32"}}, "moving_variance_initializer": {"class_name": "Ones", "config": {"dtype": "float32"}}, "beta_regularizer": null, "gamma_regularizer": null, "beta_constraint": null, "gamma_constraint": null}, "inbound_nodes": [[["incresA_3filt_exp_1x1conv2d", 0, 0, {}]]]}, {"name": "incresA_3act_scaling", "class_name": "Lambda", "config": {"name": "incresA_3act_scaling", "trainable": true, "dtype": "float32", "function": ["4wIAAAAAAAAAAgAAAAMAAABTAAAAcxQAAAB8AGQBGQB8AGQCGQB8ARQAFwBTACkDTukAAAAA6QEA\nAACpACkC2gZpbnB1dHPaBXNjYWxlcgMAAAByAwAAAPoePGlweXRob24taW5wdXQtMS1kZGI3YWQx\nZTc0MzU+2gg8bGFtYmRhPhUAAABzAAAAAA==\n", null, null], "module": "__main__", "function_type": "lambda", "output_shape": [21, 14, 384], "output_shape_type": "raw", "output_shape_module": null, "arguments": {"scale": 0.15}}, "inbound_nodes": [[["incresA_2act_scaling", 0, 0, {}], ["incresA_3filt_exp_1x1conv2dbn", 0, 0, {}]]]}, {"name": "x_red1_c2_1conv2d", "class_name": "Conv2D", "config": {"name": "x_red1_c2_1conv2d", "trainable": true, "dtype": "float32", "filters": 256, "kernel_size": [1, 1], "strides": [1, 1], "padding": "same", "data_format": "channels_last", "dilation_rate": [1, 1], "activation": "linear", "use_bias": false, "kernel_initializer": {"class_name": "GlorotUniform", "config": {"seed": null, "dtype": "float32"}}, "bias_initializer": {"class_name": "Zeros", "config": {"dtype": "float32"}}, "kernel_regularizer": null, "bias_regularizer": null, "activity_regularizer": null, "kernel_constraint": null, "bias_constraint": null}, "inbound_nodes": [[["incresA_3act_scaling", 0, 0, {}]]]}, {"name": "x_red1_c2_1conv2dbn", "class_name": "BatchNormalization", "config": {"name": "x_red1_c2_1conv2dbn", "trainable": true, "dtype": "float32", "axis": [3], "momentum": 0.99, "epsilon": 0.001, "center": true, "scale": false, "beta_initializer": {"class_name": "Zeros", "config": {"dtype": "float32"}}, "gamma_initializer": {"class_name": "Ones", "config": {"dtype": "float32"}}, "moving_mean_initializer": {"class_name": "Zeros", "config": {"dtype": "float32"}}, "moving_variance_initializer": {"class_name": "Ones", "config": {"dtype": "float32"}}, "beta_regularizer": null, "gamma_regularizer": null, "beta_constraint": null, "gamma_constraint": null}, "inbound_nodes": [[["x_red1_c2_1conv2d", 0, 0, {}]]]}, {"name": "x_red1_c2_1conv2dact", "class_name": "Activation", "config": {"name": "x_red1_c2_1conv2dact", "trainable": true, "dtype": "float32", "activation": "relu"}, "inbound_nodes": [[["x_red1_c2_1conv2dbn", 0, 0, {}]]]}, {"name": "x_red1_c2_2conv2d", "class_name": "Conv2D", "config": {"name": "x_red1_c2_2conv2d", "trainable": true, "dtype": "float32", "filters": 256, "kernel_size": [3, 3], "strides": [1, 1], "padding": "same", "data_format": "channels_last", "dilation_rate": [1, 1], "activation": "linear", "use_bias": false, "kernel_initializer": {"class_name": "GlorotUniform", "config": {"seed": null, "dtype": "float32"}}, "bias_initializer": {"class_name": "Zeros", "config": {"dtype": "float32"}}, "kernel_regularizer": null, "bias_regularizer": null, "activity_regularizer": null, "kernel_constraint": null, "bias_constraint": null}, "inbound_nodes": [[["x_red1_c2_1conv2dact", 0, 0, {}]]]}, {"name": "x_red1_c2_2conv2dbn", "class_name": "BatchNormalization", "config": {"name": "x_red1_c2_2conv2dbn", "trainable": true, "dtype": "float32", "axis": [3], "momentum": 0.99, "epsilon": 0.001, "center": true, "scale": false, "beta_initializer": {"class_name": "Zeros", "config": {"dtype": "float32"}}, "gamma_initializer": {"class_name": "Ones", "config": {"dtype": "float32"}}, "moving_mean_initializer": {"class_name": "Zeros", "config": {"dtype": "float32"}}, "moving_variance_initializer": {"class_name": "Ones", "config": {"dtype": "float32"}}, "beta_regularizer": null, "gamma_regularizer": null, "beta_constraint": null, "gamma_constraint": null}, "inbound_nodes": [[["x_red1_c2_2conv2d", 0, 0, {}]]]}, {"name": "x_red1_c2_2conv2dact", "class_name": "Activation", "config": {"name": "x_red1_c2_2conv2dact", "trainable": true, "dtype": "float32", "activation": "relu"}, "inbound_nodes": [[["x_red1_c2_2conv2dbn", 0, 0, {}]]]}, {"name": "x_red1_c1conv2d", "class_name": "Conv2D", "config": {"name": "x_red1_c1conv2d", "trainable": true, "dtype": "float32", "filters": 384, "kernel_size": [3, 3], "strides": [2, 2], "padding": "valid", "data_format": "channels_last", "dilation_rate": [1, 1], "activation": "linear", "use_bias": false, "kernel_initializer": {"class_name": "GlorotUniform", "config": {"seed": null, "dtype": "float32"}}, "bias_initializer": {"class_name": "Zeros", "config": {"dtype": "float32"}}, "kernel_regularizer": null, "bias_regularizer": null, "activity_regularizer": null, "kernel_constraint": null, "bias_constraint": null}, "inbound_nodes": [[["incresA_3act_scaling", 0, 0, {}]]]}, {"name": "x_red1_c2_3conv2d", "class_name": "Conv2D", "config": {"name": "x_red1_c2_3conv2d", "trainable": true, "dtype": "float32", "filters": 384, "kernel_size": [3, 3], "strides": [2, 2], "padding": "valid", "data_format": "channels_last", "dilation_rate": [1, 1], "activation": "linear", "use_bias": false, "kernel_initializer": {"class_name": "GlorotUniform", "config": {"seed": null, "dtype": "float32"}}, "bias_initializer": {"class_name": "Zeros", "config": {"dtype": "float32"}}, "kernel_regularizer": null, "bias_regularizer": null, "activity_regularizer": null, "kernel_constraint": null, "bias_constraint": null}, "inbound_nodes": [[["x_red1_c2_2conv2dact", 0, 0, {}]]]}, {"name": "x_red1_c1conv2dbn", "class_name": "BatchNormalization", "config": {"name": "x_red1_c1conv2dbn", "trainable": true, "dtype": "float32", "axis": [3], "momentum": 0.99, "epsilon": 0.001, "center": true, "scale": false, "beta_initializer": {"class_name": "Zeros", "config": {"dtype": "float32"}}, "gamma_initializer": {"class_name": "Ones", "config": {"dtype": "float32"}}, "moving_mean_initializer": {"class_name": "Zeros", "config": {"dtype": "float32"}}, "moving_variance_initializer": {"class_name": "Ones", "config": {"dtype": "float32"}}, "beta_regularizer": null, "gamma_regularizer": null, "beta_constraint": null, "gamma_constraint": null}, "inbound_nodes": [[["x_red1_c1conv2d", 0, 0, {}]]]}, {"name": "x_red1_c2_3conv2dbn", "class_name": "BatchNormalization", "config": {"name": "x_red1_c2_3conv2dbn", "trainable": true, "dtype": "float32", "axis": [3], "momentum": 0.99, "epsilon": 0.001, "center": true, "scale": false, "beta_initializer": {"class_name": "Zeros", "config": {"dtype": "float32"}}, "gamma_initializer": {"class_name": "Ones", "config": {"dtype": "float32"}}, "moving_mean_initializer": {"class_name": "Zeros", "config": {"dtype": "float32"}}, "moving_variance_initializer": {"class_name": "Ones", "config": {"dtype": "float32"}}, "beta_regularizer": null, "gamma_regularizer": null, "beta_constraint": null, "gamma_constraint": null}, "inbound_nodes": [[["x_red1_c2_3conv2d", 0, 0, {}]]]}, {"name": "red_maxpool_1", "class_name": "MaxPooling2D", "config": {"name": "red_maxpool_1", "trainable": true, "dtype": "float32", "pool_size": [3, 3], "padding": "valid", "strides": [2, 2], "data_format": "channels_last"}, "inbound_nodes": [[["incresA_3act_scaling", 0, 0, {}]]]}, {"name": "x_red1_c1conv2dact", "class_name": "Activation", "config": {"name": "x_red1_c1conv2dact", "trainable": true, "dtype": "float32", "activation": "relu"}, "inbound_nodes": [[["x_red1_c1conv2dbn", 0, 0, {}]]]}, {"name": "x_red1_c2_3conv2dact", "class_name": "Activation", "config": {"name": "x_red1_c2_3conv2dact", "trainable": true, "dtype": "float32", "activation": "relu"}, "inbound_nodes": [[["x_red1_c2_3conv2dbn", 0, 0, {}]]]}, {"name": "red_concat_1", "class_name": "Concatenate", "config": {"name": "red_concat_1", "trainable": true, "dtype": "float32", "axis": 3}, "inbound_nodes": [[["red_maxpool_1", 0, 0, {}], ["x_red1_c1conv2dact", 0, 0, {}], ["x_red1_c2_3conv2dact", 0, 0, {}]]]}, {"name": "incresB_1b1_1conv2d", "class_name": "Conv2D", "config": {"name": "incresB_1b1_1conv2d", "trainable": true, "dtype": "float32", "filters": 128, "kernel_size": [1, 1], "strides": [1, 1], "padding": "same", "data_format": "channels_last", "dilation_rate": [1, 1], "activation": "linear", "use_bias": false, "kernel_initializer": {"class_name": "GlorotUniform", "config": {"seed": null, "dtype": "float32"}}, "bias_initializer": {"class_name": "Zeros", "config": {"dtype": "float32"}}, "kernel_regularizer": null, "bias_regularizer": null, "activity_regularizer": null, "kernel_constraint": null, "bias_constraint": null}, "inbound_nodes": [[["red_concat_1", 0, 0, {}]]]}, {"name": "incresB_1b1_1conv2dbn", "class_name": "BatchNormalization", "config": {"name": "incresB_1b1_1conv2dbn", "trainable": true, "dtype": "float32", "axis": [3], "momentum": 0.99, "epsilon": 0.001, "center": true, "scale": false, "beta_initializer": {"class_name": "Zeros", "config": {"dtype": "float32"}}, "gamma_initializer": {"class_name": "Ones", "config": {"dtype": "float32"}}, "moving_mean_initializer": {"class_name": "Zeros", "config": {"dtype": "float32"}}, "moving_variance_initializer": {"class_name": "Ones", "config": {"dtype": "float32"}}, "beta_regularizer": null, "gamma_regularizer": null, "beta_constraint": null, "gamma_constraint": null}, "inbound_nodes": [[["incresB_1b1_1conv2d", 0, 0, {}]]]}, {"name": "incresB_1b1_1conv2dact", "class_name": "Activation", "config": {"name": "incresB_1b1_1conv2dact", "trainable": true, "dtype": "float32", "activation": "relu"}, "inbound_nodes": [[["incresB_1b1_1conv2dbn", 0, 0, {}]]]}, {"name": "incresB_1b1_2conv2d", "class_name": "Conv2D", "config": {"name": "incresB_1b1_2conv2d", "trainable": true, "dtype": "float32", "filters": 160, "kernel_size": [1, 7], "strides": [1, 1], "padding": "same", "data_format": "channels_last", "dilation_rate": [1, 1], "activation": "linear", "use_bias": false, "kernel_initializer": {"class_name": "GlorotUniform", "config": {"seed": null, "dtype": "float32"}}, "bias_initializer": {"class_name": "Zeros", "config": {"dtype": "float32"}}, "kernel_regularizer": null, "bias_regularizer": null, "activity_regularizer": null, "kernel_constraint": null, "bias_constraint": null}, "inbound_nodes": [[["incresB_1b1_1conv2dact", 0, 0, {}]]]}, {"name": "incresB_1b1_2conv2dbn", "class_name": "BatchNormalization", "config": {"name": "incresB_1b1_2conv2dbn", "trainable": true, "dtype": "float32", "axis": [3], "momentum": 0.99, "epsilon": 0.001, "center": true, "scale": false, "beta_initializer": {"class_name": "Zeros", "config": {"dtype": "float32"}}, "gamma_initializer": {"class_name": "Ones", "config": {"dtype": "float32"}}, "moving_mean_initializer": {"class_name": "Zeros", "config": {"dtype": "float32"}}, "moving_variance_initializer": {"class_name": "Ones", "config": {"dtype": "float32"}}, "beta_regularizer": null, "gamma_regularizer": null, "beta_constraint": null, "gamma_constraint": null}, "inbound_nodes": [[["incresB_1b1_2conv2d", 0, 0, {}]]]}, {"name": "incresB_1b1_2conv2dact", "class_name": "Activation", "config": {"name": "incresB_1b1_2conv2dact", "trainable": true, "dtype": "float32", "activation": "relu"}, "inbound_nodes": [[["incresB_1b1_2conv2dbn", 0, 0, {}]]]}, {"name": "incresB_1b0conv2d", "class_name": "Conv2D", "config": {"name": "incresB_1b0conv2d", "trainable": true, "dtype": "float32", "filters": 192, "kernel_size": [1, 1], "strides": [1, 1], "padding": "same", "data_format": "channels_last", "dilation_rate": [1, 1], "activation": "linear", "use_bias": false, "kernel_initializer": {"class_name": "GlorotUniform", "config": {"seed": null, "dtype": "float32"}}, "bias_initializer": {"class_name": "Zeros", "config": {"dtype": "float32"}}, "kernel_regularizer": null, "bias_regularizer": null, "activity_regularizer": null, "kernel_constraint": null, "bias_constraint": null}, "inbound_nodes": [[["red_concat_1", 0, 0, {}]]]}, {"name": "incresB_1b1_3conv2d", "class_name": "Conv2D", "config": {"name": "incresB_1b1_3conv2d", "trainable": true, "dtype": "float32", "filters": 192, "kernel_size": [7, 1], "strides": [1, 1], "padding": "same", "data_format": "channels_last", "dilation_rate": [1, 1], "activation": "linear", "use_bias": false, "kernel_initializer": {"class_name": "GlorotUniform", "config": {"seed": null, "dtype": "float32"}}, "bias_initializer": {"class_name": "Zeros", "config": {"dtype": "float32"}}, "kernel_regularizer": null, "bias_regularizer": null, "activity_regularizer": null, "kernel_constraint": null, "bias_constraint": null}, "inbound_nodes": [[["incresB_1b1_2conv2dact", 0, 0, {}]]]}, {"name": "incresB_1b0conv2dbn", "class_name": "BatchNormalization", "config": {"name": "incresB_1b0conv2dbn", "trainable": true, "dtype": "float32", "axis": [3], "momentum": 0.99, "epsilon": 0.001, "center": true, "scale": false, "beta_initializer": {"class_name": "Zeros", "config": {"dtype": "float32"}}, "gamma_initializer": {"class_name": "Ones", "config": {"dtype": "float32"}}, "moving_mean_initializer": {"class_name": "Zeros", "config": {"dtype": "float32"}}, "moving_variance_initializer": {"class_name": "Ones", "config": {"dtype": "float32"}}, "beta_regularizer": null, "gamma_regularizer": null, "beta_constraint": null, "gamma_constraint": null}, "inbound_nodes": [[["incresB_1b0conv2d", 0, 0, {}]]]}, {"name": "incresB_1b1_3conv2dbn", "class_name": "BatchNormalization", "config": {"name": "incresB_1b1_3conv2dbn", "trainable": true, "dtype": "float32", "axis": [3], "momentum": 0.99, "epsilon": 0.001, "center": true, "scale": false, "beta_initializer": {"class_name": "Zeros", "config": {"dtype": "float32"}}, "gamma_initializer": {"class_name": "Ones", "config": {"dtype": "float32"}}, "moving_mean_initializer": {"class_name": "Zeros", "config": {"dtype": "float32"}}, "moving_variance_initializer": {"class_name": "Ones", "config": {"dtype": "float32"}}, "beta_regularizer": null, "gamma_regularizer": null, "beta_constraint": null, "gamma_constraint": null}, "inbound_nodes": [[["incresB_1b1_3conv2d", 0, 0, {}]]]}, {"name": "incresB_1b0conv2dact", "class_name": "Activation", "config": {"name": "incresB_1b0conv2dact", "trainable": true, "dtype": "float32", "activation": "relu"}, "inbound_nodes": [[["incresB_1b0conv2dbn", 0, 0, {}]]]}, {"name": "incresB_1b1_3conv2dact", "class_name": "Activation", "config": {"name": "incresB_1b1_3conv2dact", "trainable": true, "dtype": "float32", "activation": "relu"}, "inbound_nodes": [[["incresB_1b1_3conv2dbn", 0, 0, {}]]]}, {"name": "incresB_1_mixed", "class_name": "Concatenate", "config": {"name": "incresB_1_mixed", "trainable": true, "dtype": "float32", "axis": 3}, "inbound_nodes": [[["incresB_1b0conv2dact", 0, 0, {}], ["incresB_1b1_3conv2dact", 0, 0, {}]]]}, {"name": "incresB_1filt_exp_1x1conv2d", "class_name": "Conv2D", "config": {"name": "incresB_1filt_exp_1x1conv2d", "trainable": true, "dtype": "float32", "filters": 1152, "kernel_size": [1, 1], "strides": [1, 1], "padding": "same", "data_format": "channels_last", "dilation_rate": [1, 1], "activation": "linear", "use_bias": false, "kernel_initializer": {"class_name": "GlorotUniform", "config": {"seed": null, "dtype": "float32"}}, "bias_initializer": {"class_name": "Zeros", "config": {"dtype": "float32"}}, "kernel_regularizer": null, "bias_regularizer": null, "activity_regularizer": null, "kernel_constraint": null, "bias_constraint": null}, "inbound_nodes": [[["incresB_1_mixed", 0, 0, {}]]]}, {"name": "incresB_1filt_exp_1x1conv2dbn", "class_name": "BatchNormalization", "config": {"name": "incresB_1filt_exp_1x1conv2dbn", "trainable": true, "dtype": "float32", "axis": [3], "momentum": 0.99, "epsilon": 0.001, "center": true, "scale": false, "beta_initializer": {"class_name": "Zeros", "config": {"dtype": "float32"}}, "gamma_initializer": {"class_name": "Ones", "config": {"dtype": "float32"}}, "moving_mean_initializer": {"class_name": "Zeros", "config": {"dtype": "float32"}}, "moving_variance_initializer": {"class_name": "Ones", "config": {"dtype": "float32"}}, "beta_regularizer": null, "gamma_regularizer": null, "beta_constraint": null, "gamma_constraint": null}, "inbound_nodes": [[["incresB_1filt_exp_1x1conv2d", 0, 0, {}]]]}, {"name": "incresB_1act_scaling", "class_name": "Lambda", "config": {"name": "incresB_1act_scaling", "trainable": true, "dtype": "float32", "function": ["4wIAAAAAAAAAAgAAAAMAAABTAAAAcxQAAAB8AGQBGQB8AGQCGQB8ARQAFwBTACkDTukAAAAA6QEA\nAACpACkC2gZpbnB1dHPaBXNjYWxlcgMAAAByAwAAAPoePGlweXRob24taW5wdXQtMS1kZGI3YWQx\nZTc0MzU+2gg8bGFtYmRhPiQAAABzAAAAAA==\n", null, null], "module": "__main__", "function_type": "lambda", "output_shape": [10, 6, 1152], "output_shape_type": "raw", "output_shape_module": null, "arguments": {"scale": 0.1}}, "inbound_nodes": [[["red_concat_1", 0, 0, {}], ["incresB_1filt_exp_1x1conv2dbn", 0, 0, {}]]]}, {"name": "incresB_2b1_1conv2d", "class_name": "Conv2D", "config": {"name": "incresB_2b1_1conv2d", "trainable": true, "dtype": "float32", "filters": 128, "kernel_size": [1, 1], "strides": [1, 1], "padding": "same", "data_format": "channels_last", "dilation_rate": [1, 1], "activation": "linear", "use_bias": false, "kernel_initializer": {"class_name": "GlorotUniform", "config": {"seed": null, "dtype": "float32"}}, "bias_initializer": {"class_name": "Zeros", "config": {"dtype": "float32"}}, "kernel_regularizer": null, "bias_regularizer": null, "activity_regularizer": null, "kernel_constraint": null, "bias_constraint": null}, "inbound_nodes": [[["incresB_1act_scaling", 0, 0, {}]]]}, {"name": "incresB_2b1_1conv2dbn", "class_name": "BatchNormalization", "config": {"name": "incresB_2b1_1conv2dbn", "trainable": true, "dtype": "float32", "axis": [3], "momentum": 0.99, "epsilon": 0.001, "center": true, "scale": false, "beta_initializer": {"class_name": "Zeros", "config": {"dtype": "float32"}}, "gamma_initializer": {"class_name": "Ones", "config": {"dtype": "float32"}}, "moving_mean_initializer": {"class_name": "Zeros", "config": {"dtype": "float32"}}, "moving_variance_initializer": {"class_name": "Ones", "config": {"dtype": "float32"}}, "beta_regularizer": null, "gamma_regularizer": null, "beta_constraint": null, "gamma_constraint": null}, "inbound_nodes": [[["incresB_2b1_1conv2d", 0, 0, {}]]]}, {"name": "incresB_2b1_1conv2dact", "class_name": "Activation", "config": {"name": "incresB_2b1_1conv2dact", "trainable": true, "dtype": "float32", "activation": "relu"}, "inbound_nodes": [[["incresB_2b1_1conv2dbn", 0, 0, {}]]]}, {"name": "incresB_2b1_2conv2d", "class_name": "Conv2D", "config": {"name": "incresB_2b1_2conv2d", "trainable": true, "dtype": "float32", "filters": 160, "kernel_size": [1, 7], "strides": [1, 1], "padding": "same", "data_format": "channels_last", "dilation_rate": [1, 1], "activation": "linear", "use_bias": false, "kernel_initializer": {"class_name": "GlorotUniform", "config": {"seed": null, "dtype": "float32"}}, "bias_initializer": {"class_name": "Zeros", "config": {"dtype": "float32"}}, "kernel_regularizer": null, "bias_regularizer": null, "activity_regularizer": null, "kernel_constraint": null, "bias_constraint": null}, "inbound_nodes": [[["incresB_2b1_1conv2dact", 0, 0, {}]]]}, {"name": "incresB_2b1_2conv2dbn", "class_name": "BatchNormalization", "config": {"name": "incresB_2b1_2conv2dbn", "trainable": true, "dtype": "float32", "axis": [3], "momentum": 0.99, "epsilon": 0.001, "center": true, "scale": false, "beta_initializer": {"class_name": "Zeros", "config": {"dtype": "float32"}}, "gamma_initializer": {"class_name": "Ones", "config": {"dtype": "float32"}}, "moving_mean_initializer": {"class_name": "Zeros", "config": {"dtype": "float32"}}, "moving_variance_initializer": {"class_name": "Ones", "config": {"dtype": "float32"}}, "beta_regularizer": null, "gamma_regularizer": null, "beta_constraint": null, "gamma_constraint": null}, "inbound_nodes": [[["incresB_2b1_2conv2d", 0, 0, {}]]]}, {"name": "incresB_2b1_2conv2dact", "class_name": "Activation", "config": {"name": "incresB_2b1_2conv2dact", "trainable": true, "dtype": "float32", "activation": "relu"}, "inbound_nodes": [[["incresB_2b1_2conv2dbn", 0, 0, {}]]]}, {"name": "incresB_2b0conv2d", "class_name": "Conv2D", "config": {"name": "incresB_2b0conv2d", "trainable": true, "dtype": "float32", "filters": 192, "kernel_size": [1, 1], "strides": [1, 1], "padding": "same", "data_format": "channels_last", "dilation_rate": [1, 1], "activation": "linear", "use_bias": false, "kernel_initializer": {"class_name": "GlorotUniform", "config": {"seed": null, "dtype": "float32"}}, "bias_initializer": {"class_name": "Zeros", "config": {"dtype": "float32"}}, "kernel_regularizer": null, "bias_regularizer": null, "activity_regularizer": null, "kernel_constraint": null, "bias_constraint": null}, "inbound_nodes": [[["incresB_1act_scaling", 0, 0, {}]]]}, {"name": "incresB_2b1_3conv2d", "class_name": "Conv2D", "config": {"name": "incresB_2b1_3conv2d", "trainable": true, "dtype": "float32", "filters": 192, "kernel_size": [7, 1], "strides": [1, 1], "padding": "same", "data_format": "channels_last", "dilation_rate": [1, 1], "activation": "linear", "use_bias": false, "kernel_initializer": {"class_name": "GlorotUniform", "config": {"seed": null, "dtype": "float32"}}, "bias_initializer": {"class_name": "Zeros", "config": {"dtype": "float32"}}, "kernel_regularizer": null, "bias_regularizer": null, "activity_regularizer": null, "kernel_constraint": null, "bias_constraint": null}, "inbound_nodes": [[["incresB_2b1_2conv2dact", 0, 0, {}]]]}, {"name": "incresB_2b0conv2dbn", "class_name": "BatchNormalization", "config": {"name": "incresB_2b0conv2dbn", "trainable": true, "dtype": "float32", "axis": [3], "momentum": 0.99, "epsilon": 0.001, "center": true, "scale": false, "beta_initializer": {"class_name": "Zeros", "config": {"dtype": "float32"}}, "gamma_initializer": {"class_name": "Ones", "config": {"dtype": "float32"}}, "moving_mean_initializer": {"class_name": "Zeros", "config": {"dtype": "float32"}}, "moving_variance_initializer": {"class_name": "Ones", "config": {"dtype": "float32"}}, "beta_regularizer": null, "gamma_regularizer": null, "beta_constraint": null, "gamma_constraint": null}, "inbound_nodes": [[["incresB_2b0conv2d", 0, 0, {}]]]}, {"name": "incresB_2b1_3conv2dbn", "class_name": "BatchNormalization", "config": {"name": "incresB_2b1_3conv2dbn", "trainable": true, "dtype": "float32", "axis": [3], "momentum": 0.99, "epsilon": 0.001, "center": true, "scale": false, "beta_initializer": {"class_name": "Zeros", "config": {"dtype": "float32"}}, "gamma_initializer": {"class_name": "Ones", "config": {"dtype": "float32"}}, "moving_mean_initializer": {"class_name": "Zeros", "config": {"dtype": "float32"}}, "moving_variance_initializer": {"class_name": "Ones", "config": {"dtype": "float32"}}, "beta_regularizer": null, "gamma_regularizer": null, "beta_constraint": null, "gamma_constraint": null}, "inbound_nodes": [[["incresB_2b1_3conv2d", 0, 0, {}]]]}, {"name": "incresB_2b0conv2dact", "class_name": "Activation", "config": {"name": "incresB_2b0conv2dact", "trainable": true, "dtype": "float32", "activation": "relu"}, "inbound_nodes": [[["incresB_2b0conv2dbn", 0, 0, {}]]]}, {"name": "incresB_2b1_3conv2dact", "class_name": "Activation", "config": {"name": "incresB_2b1_3conv2dact", "trainable": true, "dtype": "float32", "activation": "relu"}, "inbound_nodes": [[["incresB_2b1_3conv2dbn", 0, 0, {}]]]}, {"name": "incresB_2_mixed", "class_name": "Concatenate", "config": {"name": "incresB_2_mixed", "trainable": true, "dtype": "float32", "axis": 3}, "inbound_nodes": [[["incresB_2b0conv2dact", 0, 0, {}], ["incresB_2b1_3conv2dact", 0, 0, {}]]]}, {"name": "incresB_2filt_exp_1x1conv2d", "class_name": "Conv2D", "config": {"name": "incresB_2filt_exp_1x1conv2d", "trainable": true, "dtype": "float32", "filters": 1152, "kernel_size": [1, 1], "strides": [1, 1], "padding": "same", "data_format": "channels_last", "dilation_rate": [1, 1], "activation": "linear", "use_bias": false, "kernel_initializer": {"class_name": "GlorotUniform", "config": {"seed": null, "dtype": "float32"}}, "bias_initializer": {"class_name": "Zeros", "config": {"dtype": "float32"}}, "kernel_regularizer": null, "bias_regularizer": null, "activity_regularizer": null, "kernel_constraint": null, "bias_constraint": null}, "inbound_nodes": [[["incresB_2_mixed", 0, 0, {}]]]}, {"name": "incresB_2filt_exp_1x1conv2dbn", "class_name": "BatchNormalization", "config": {"name": "incresB_2filt_exp_1x1conv2dbn", "trainable": true, "dtype": "float32", "axis": [3], "momentum": 0.99, "epsilon": 0.001, "center": true, "scale": false, "beta_initializer": {"class_name": "Zeros", "config": {"dtype": "float32"}}, "gamma_initializer": {"class_name": "Ones", "config": {"dtype": "float32"}}, "moving_mean_initializer": {"class_name": "Zeros", "config": {"dtype": "float32"}}, "moving_variance_initializer": {"class_name": "Ones", "config": {"dtype": "float32"}}, "beta_regularizer": null, "gamma_regularizer": null, "beta_constraint": null, "gamma_constraint": null}, "inbound_nodes": [[["incresB_2filt_exp_1x1conv2d", 0, 0, {}]]]}, {"name": "incresB_2act_scaling", "class_name": "Lambda", "config": {"name": "incresB_2act_scaling", "trainable": true, "dtype": "float32", "function": ["4wIAAAAAAAAAAgAAAAMAAABTAAAAcxQAAAB8AGQBGQB8AGQCGQB8ARQAFwBTACkDTukAAAAA6QEA\nAACpACkC2gZpbnB1dHPaBXNjYWxlcgMAAAByAwAAAPoePGlweXRob24taW5wdXQtMS1kZGI3YWQx\nZTc0MzU+2gg8bGFtYmRhPiQAAABzAAAAAA==\n", null, null], "module": "__main__", "function_type": "lambda", "output_shape": [10, 6, 1152], "output_shape_type": "raw", "output_shape_module": null, "arguments": {"scale": 0.1}}, "inbound_nodes": [[["incresB_1act_scaling", 0, 0, {}], ["incresB_2filt_exp_1x1conv2dbn", 0, 0, {}]]]}, {"name": "incresB_3b1_1conv2d", "class_name": "Conv2D", "config": {"name": "incresB_3b1_1conv2d", "trainable": true, "dtype": "float32", "filters": 128, "kernel_size": [1, 1], "strides": [1, 1], "padding": "same", "data_format": "channels_last", "dilation_rate": [1, 1], "activation": "linear", "use_bias": false, "kernel_initializer": {"class_name": "GlorotUniform", "config": {"seed": null, "dtype": "float32"}}, "bias_initializer": {"class_name": "Zeros", "config": {"dtype": "float32"}}, "kernel_regularizer": null, "bias_regularizer": null, "activity_regularizer": null, "kernel_constraint": null, "bias_constraint": null}, "inbound_nodes": [[["incresB_2act_scaling", 0, 0, {}]]]}, {"name": "incresB_3b1_1conv2dbn", "class_name": "BatchNormalization", "config": {"name": "incresB_3b1_1conv2dbn", "trainable": true, "dtype": "float32", "axis": [3], "momentum": 0.99, "epsilon": 0.001, "center": true, "scale": false, "beta_initializer": {"class_name": "Zeros", "config": {"dtype": "float32"}}, "gamma_initializer": {"class_name": "Ones", "config": {"dtype": "float32"}}, "moving_mean_initializer": {"class_name": "Zeros", "config": {"dtype": "float32"}}, "moving_variance_initializer": {"class_name": "Ones", "config": {"dtype": "float32"}}, "beta_regularizer": null, "gamma_regularizer": null, "beta_constraint": null, "gamma_constraint": null}, "inbound_nodes": [[["incresB_3b1_1conv2d", 0, 0, {}]]]}, {"name": "incresB_3b1_1conv2dact", "class_name": "Activation", "config": {"name": "incresB_3b1_1conv2dact", "trainable": true, "dtype": "float32", "activation": "relu"}, "inbound_nodes": [[["incresB_3b1_1conv2dbn", 0, 0, {}]]]}, {"name": "incresB_3b1_2conv2d", "class_name": "Conv2D", "config": {"name": "incresB_3b1_2conv2d", "trainable": true, "dtype": "float32", "filters": 160, "kernel_size": [1, 7], "strides": [1, 1], "padding": "same", "data_format": "channels_last", "dilation_rate": [1, 1], "activation": "linear", "use_bias": false, "kernel_initializer": {"class_name": "GlorotUniform", "config": {"seed": null, "dtype": "float32"}}, "bias_initializer": {"class_name": "Zeros", "config": {"dtype": "float32"}}, "kernel_regularizer": null, "bias_regularizer": null, "activity_regularizer": null, "kernel_constraint": null, "bias_constraint": null}, "inbound_nodes": [[["incresB_3b1_1conv2dact", 0, 0, {}]]]}, {"name": "incresB_3b1_2conv2dbn", "class_name": "BatchNormalization", "config": {"name": "incresB_3b1_2conv2dbn", "trainable": true, "dtype": "float32", "axis": [3], "momentum": 0.99, "epsilon": 0.001, "center": true, "scale": false, "beta_initializer": {"class_name": "Zeros", "config": {"dtype": "float32"}}, "gamma_initializer": {"class_name": "Ones", "config": {"dtype": "float32"}}, "moving_mean_initializer": {"class_name": "Zeros", "config": {"dtype": "float32"}}, "moving_variance_initializer": {"class_name": "Ones", "config": {"dtype": "float32"}}, "beta_regularizer": null, "gamma_regularizer": null, "beta_constraint": null, "gamma_constraint": null}, "inbound_nodes": [[["incresB_3b1_2conv2d", 0, 0, {}]]]}, {"name": "incresB_3b1_2conv2dact", "class_name": "Activation", "config": {"name": "incresB_3b1_2conv2dact", "trainable": true, "dtype": "float32", "activation": "relu"}, "inbound_nodes": [[["incresB_3b1_2conv2dbn", 0, 0, {}]]]}, {"name": "incresB_3b0conv2d", "class_name": "Conv2D", "config": {"name": "incresB_3b0conv2d", "trainable": true, "dtype": "float32", "filters": 192, "kernel_size": [1, 1], "strides": [1, 1], "padding": "same", "data_format": "channels_last", "dilation_rate": [1, 1], "activation": "linear", "use_bias": false, "kernel_initializer": {"class_name": "GlorotUniform", "config": {"seed": null, "dtype": "float32"}}, "bias_initializer": {"class_name": "Zeros", "config": {"dtype": "float32"}}, "kernel_regularizer": null, "bias_regularizer": null, "activity_regularizer": null, "kernel_constraint": null, "bias_constraint": null}, "inbound_nodes": [[["incresB_2act_scaling", 0, 0, {}]]]}, {"name": "incresB_3b1_3conv2d", "class_name": "Conv2D", "config": {"name": "incresB_3b1_3conv2d", "trainable": true, "dtype": "float32", "filters": 192, "kernel_size": [7, 1], "strides": [1, 1], "padding": "same", "data_format": "channels_last", "dilation_rate": [1, 1], "activation": "linear", "use_bias": false, "kernel_initializer": {"class_name": "GlorotUniform", "config": {"seed": null, "dtype": "float32"}}, "bias_initializer": {"class_name": "Zeros", "config": {"dtype": "float32"}}, "kernel_regularizer": null, "bias_regularizer": null, "activity_regularizer": null, "kernel_constraint": null, "bias_constraint": null}, "inbound_nodes": [[["incresB_3b1_2conv2dact", 0, 0, {}]]]}, {"name": "incresB_3b0conv2dbn", "class_name": "BatchNormalization", "config": {"name": "incresB_3b0conv2dbn", "trainable": true, "dtype": "float32", "axis": [3], "momentum": 0.99, "epsilon": 0.001, "center": true, "scale": false, "beta_initializer": {"class_name": "Zeros", "config": {"dtype": "float32"}}, "gamma_initializer": {"class_name": "Ones", "config": {"dtype": "float32"}}, "moving_mean_initializer": {"class_name": "Zeros", "config": {"dtype": "float32"}}, "moving_variance_initializer": {"class_name": "Ones", "config": {"dtype": "float32"}}, "beta_regularizer": null, "gamma_regularizer": null, "beta_constraint": null, "gamma_constraint": null}, "inbound_nodes": [[["incresB_3b0conv2d", 0, 0, {}]]]}, {"name": "incresB_3b1_3conv2dbn", "class_name": "BatchNormalization", "config": {"name": "incresB_3b1_3conv2dbn", "trainable": true, "dtype": "float32", "axis": [3], "momentum": 0.99, "epsilon": 0.001, "center": true, "scale": false, "beta_initializer": {"class_name": "Zeros", "config": {"dtype": "float32"}}, "gamma_initializer": {"class_name": "Ones", "config": {"dtype": "float32"}}, "moving_mean_initializer": {"class_name": "Zeros", "config": {"dtype": "float32"}}, "moving_variance_initializer": {"class_name": "Ones", "config": {"dtype": "float32"}}, "beta_regularizer": null, "gamma_regularizer": null, "beta_constraint": null, "gamma_constraint": null}, "inbound_nodes": [[["incresB_3b1_3conv2d", 0, 0, {}]]]}, {"name": "incresB_3b0conv2dact", "class_name": "Activation", "config": {"name": "incresB_3b0conv2dact", "trainable": true, "dtype": "float32", "activation": "relu"}, "inbound_nodes": [[["incresB_3b0conv2dbn", 0, 0, {}]]]}, {"name": "incresB_3b1_3conv2dact", "class_name": "Activation", "config": {"name": "incresB_3b1_3conv2dact", "trainable": true, "dtype": "float32", "activation": "relu"}, "inbound_nodes": [[["incresB_3b1_3conv2dbn", 0, 0, {}]]]}, {"name": "incresB_3_mixed", "class_name": "Concatenate", "config": {"name": "incresB_3_mixed", "trainable": true, "dtype": "float32", "axis": 3}, "inbound_nodes": [[["incresB_3b0conv2dact", 0, 0, {}], ["incresB_3b1_3conv2dact", 0, 0, {}]]]}, {"name": "incresB_3filt_exp_1x1conv2d", "class_name": "Conv2D", "config": {"name": "incresB_3filt_exp_1x1conv2d", "trainable": true, "dtype": "float32", "filters": 1152, "kernel_size": [1, 1], "strides": [1, 1], "padding": "same", "data_format": "channels_last", "dilation_rate": [1, 1], "activation": "linear", "use_bias": false, "kernel_initializer": {"class_name": "GlorotUniform", "config": {"seed": null, "dtype": "float32"}}, "bias_initializer": {"class_name": "Zeros", "config": {"dtype": "float32"}}, "kernel_regularizer": null, "bias_regularizer": null, "activity_regularizer": null, "kernel_constraint": null, "bias_constraint": null}, "inbound_nodes": [[["incresB_3_mixed", 0, 0, {}]]]}, {"name": "incresB_3filt_exp_1x1conv2dbn", "class_name": "BatchNormalization", "config": {"name": "incresB_3filt_exp_1x1conv2dbn", "trainable": true, "dtype": "float32", "axis": [3], "momentum": 0.99, "epsilon": 0.001, "center": true, "scale": false, "beta_initializer": {"class_name": "Zeros", "config": {"dtype": "float32"}}, "gamma_initializer": {"class_name": "Ones", "config": {"dtype": "float32"}}, "moving_mean_initializer": {"class_name": "Zeros", "config": {"dtype": "float32"}}, "moving_variance_initializer": {"class_name": "Ones", "config": {"dtype": "float32"}}, "beta_regularizer": null, "gamma_regularizer": null, "beta_constraint": null, "gamma_constraint": null}, "inbound_nodes": [[["incresB_3filt_exp_1x1conv2d", 0, 0, {}]]]}, {"name": "incresB_3act_scaling", "class_name": "Lambda", "config": {"name": "incresB_3act_scaling", "trainable": true, "dtype": "float32", "function": ["4wIAAAAAAAAAAgAAAAMAAABTAAAAcxQAAAB8AGQBGQB8AGQCGQB8ARQAFwBTACkDTukAAAAA6QEA\nAACpACkC2gZpbnB1dHPaBXNjYWxlcgMAAAByAwAAAPoePGlweXRob24taW5wdXQtMS1kZGI3YWQx\nZTc0MzU+2gg8bGFtYmRhPiQAAABzAAAAAA==\n", null, null], "module": "__main__", "function_type": "lambda", "output_shape": [10, 6, 1152], "output_shape_type": "raw", "output_shape_module": null, "arguments": {"scale": 0.1}}, "inbound_nodes": [[["incresB_2act_scaling", 0, 0, {}], ["incresB_3filt_exp_1x1conv2dbn", 0, 0, {}]]]}, {"name": "incresB_4b1_1conv2d", "class_name": "Conv2D", "config": {"name": "incresB_4b1_1conv2d", "trainable": true, "dtype": "float32", "filters": 128, "kernel_size": [1, 1], "strides": [1, 1], "padding": "same", "data_format": "channels_last", "dilation_rate": [1, 1], "activation": "linear", "use_bias": false, "kernel_initializer": {"class_name": "GlorotUniform", "config": {"seed": null, "dtype": "float32"}}, "bias_initializer": {"class_name": "Zeros", "config": {"dtype": "float32"}}, "kernel_regularizer": null, "bias_regularizer": null, "activity_regularizer": null, "kernel_constraint": null, "bias_constraint": null}, "inbound_nodes": [[["incresB_3act_scaling", 0, 0, {}]]]}, {"name": "incresB_4b1_1conv2dbn", "class_name": "BatchNormalization", "config": {"name": "incresB_4b1_1conv2dbn", "trainable": true, "dtype": "float32", "axis": [3], "momentum": 0.99, "epsilon": 0.001, "center": true, "scale": false, "beta_initializer": {"class_name": "Zeros", "config": {"dtype": "float32"}}, "gamma_initializer": {"class_name": "Ones", "config": {"dtype": "float32"}}, "moving_mean_initializer": {"class_name": "Zeros", "config": {"dtype": "float32"}}, "moving_variance_initializer": {"class_name": "Ones", "config": {"dtype": "float32"}}, "beta_regularizer": null, "gamma_regularizer": null, "beta_constraint": null, "gamma_constraint": null}, "inbound_nodes": [[["incresB_4b1_1conv2d", 0, 0, {}]]]}, {"name": "incresB_4b1_1conv2dact", "class_name": "Activation", "config": {"name": "incresB_4b1_1conv2dact", "trainable": true, "dtype": "float32", "activation": "relu"}, "inbound_nodes": [[["incresB_4b1_1conv2dbn", 0, 0, {}]]]}, {"name": "incresB_4b1_2conv2d", "class_name": "Conv2D", "config": {"name": "incresB_4b1_2conv2d", "trainable": true, "dtype": "float32", "filters": 160, "kernel_size": [1, 7], "strides": [1, 1], "padding": "same", "data_format": "channels_last", "dilation_rate": [1, 1], "activation": "linear", "use_bias": false, "kernel_initializer": {"class_name": "GlorotUniform", "config": {"seed": null, "dtype": "float32"}}, "bias_initializer": {"class_name": "Zeros", "config": {"dtype": "float32"}}, "kernel_regularizer": null, "bias_regularizer": null, "activity_regularizer": null, "kernel_constraint": null, "bias_constraint": null}, "inbound_nodes": [[["incresB_4b1_1conv2dact", 0, 0, {}]]]}, {"name": "incresB_4b1_2conv2dbn", "class_name": "BatchNormalization", "config": {"name": "incresB_4b1_2conv2dbn", "trainable": true, "dtype": "float32", "axis": [3], "momentum": 0.99, "epsilon": 0.001, "center": true, "scale": false, "beta_initializer": {"class_name": "Zeros", "config": {"dtype": "float32"}}, "gamma_initializer": {"class_name": "Ones", "config": {"dtype": "float32"}}, "moving_mean_initializer": {"class_name": "Zeros", "config": {"dtype": "float32"}}, "moving_variance_initializer": {"class_name": "Ones", "config": {"dtype": "float32"}}, "beta_regularizer": null, "gamma_regularizer": null, "beta_constraint": null, "gamma_constraint": null}, "inbound_nodes": [[["incresB_4b1_2conv2d", 0, 0, {}]]]}, {"name": "incresB_4b1_2conv2dact", "class_name": "Activation", "config": {"name": "incresB_4b1_2conv2dact", "trainable": true, "dtype": "float32", "activation": "relu"}, "inbound_nodes": [[["incresB_4b1_2conv2dbn", 0, 0, {}]]]}, {"name": "incresB_4b0conv2d", "class_name": "Conv2D", "config": {"name": "incresB_4b0conv2d", "trainable": true, "dtype": "float32", "filters": 192, "kernel_size": [1, 1], "strides": [1, 1], "padding": "same", "data_format": "channels_last", "dilation_rate": [1, 1], "activation": "linear", "use_bias": false, "kernel_initializer": {"class_name": "GlorotUniform", "config": {"seed": null, "dtype": "float32"}}, "bias_initializer": {"class_name": "Zeros", "config": {"dtype": "float32"}}, "kernel_regularizer": null, "bias_regularizer": null, "activity_regularizer": null, "kernel_constraint": null, "bias_constraint": null}, "inbound_nodes": [[["incresB_3act_scaling", 0, 0, {}]]]}, {"name": "incresB_4b1_3conv2d", "class_name": "Conv2D", "config": {"name": "incresB_4b1_3conv2d", "trainable": true, "dtype": "float32", "filters": 192, "kernel_size": [7, 1], "strides": [1, 1], "padding": "same", "data_format": "channels_last", "dilation_rate": [1, 1], "activation": "linear", "use_bias": false, "kernel_initializer": {"class_name": "GlorotUniform", "config": {"seed": null, "dtype": "float32"}}, "bias_initializer": {"class_name": "Zeros", "config": {"dtype": "float32"}}, "kernel_regularizer": null, "bias_regularizer": null, "activity_regularizer": null, "kernel_constraint": null, "bias_constraint": null}, "inbound_nodes": [[["incresB_4b1_2conv2dact", 0, 0, {}]]]}, {"name": "incresB_4b0conv2dbn", "class_name": "BatchNormalization", "config": {"name": "incresB_4b0conv2dbn", "trainable": true, "dtype": "float32", "axis": [3], "momentum": 0.99, "epsilon": 0.001, "center": true, "scale": false, "beta_initializer": {"class_name": "Zeros", "config": {"dtype": "float32"}}, "gamma_initializer": {"class_name": "Ones", "config": {"dtype": "float32"}}, "moving_mean_initializer": {"class_name": "Zeros", "config": {"dtype": "float32"}}, "moving_variance_initializer": {"class_name": "Ones", "config": {"dtype": "float32"}}, "beta_regularizer": null, "gamma_regularizer": null, "beta_constraint": null, "gamma_constraint": null}, "inbound_nodes": [[["incresB_4b0conv2d", 0, 0, {}]]]}, {"name": "incresB_4b1_3conv2dbn", "class_name": "BatchNormalization", "config": {"name": "incresB_4b1_3conv2dbn", "trainable": true, "dtype": "float32", "axis": [3], "momentum": 0.99, "epsilon": 0.001, "center": true, "scale": false, "beta_initializer": {"class_name": "Zeros", "config": {"dtype": "float32"}}, "gamma_initializer": {"class_name": "Ones", "config": {"dtype": "float32"}}, "moving_mean_initializer": {"class_name": "Zeros", "config": {"dtype": "float32"}}, "moving_variance_initializer": {"class_name": "Ones", "config": {"dtype": "float32"}}, "beta_regularizer": null, "gamma_regularizer": null, "beta_constraint": null, "gamma_constraint": null}, "inbound_nodes": [[["incresB_4b1_3conv2d", 0, 0, {}]]]}, {"name": "incresB_4b0conv2dact", "class_name": "Activation", "config": {"name": "incresB_4b0conv2dact", "trainable": true, "dtype": "float32", "activation": "relu"}, "inbound_nodes": [[["incresB_4b0conv2dbn", 0, 0, {}]]]}, {"name": "incresB_4b1_3conv2dact", "class_name": "Activation", "config": {"name": "incresB_4b1_3conv2dact", "trainable": true, "dtype": "float32", "activation": "relu"}, "inbound_nodes": [[["incresB_4b1_3conv2dbn", 0, 0, {}]]]}, {"name": "incresB_4_mixed", "class_name": "Concatenate", "config": {"name": "incresB_4_mixed", "trainable": true, "dtype": "float32", "axis": 3}, "inbound_nodes": [[["incresB_4b0conv2dact", 0, 0, {}], ["incresB_4b1_3conv2dact", 0, 0, {}]]]}, {"name": "incresB_4filt_exp_1x1conv2d", "class_name": "Conv2D", "config": {"name": "incresB_4filt_exp_1x1conv2d", "trainable": true, "dtype": "float32", "filters": 1152, "kernel_size": [1, 1], "strides": [1, 1], "padding": "same", "data_format": "channels_last", "dilation_rate": [1, 1], "activation": "linear", "use_bias": false, "kernel_initializer": {"class_name": "GlorotUniform", "config": {"seed": null, "dtype": "float32"}}, "bias_initializer": {"class_name": "Zeros", "config": {"dtype": "float32"}}, "kernel_regularizer": null, "bias_regularizer": null, "activity_regularizer": null, "kernel_constraint": null, "bias_constraint": null}, "inbound_nodes": [[["incresB_4_mixed", 0, 0, {}]]]}, {"name": "incresB_4filt_exp_1x1conv2dbn", "class_name": "BatchNormalization", "config": {"name": "incresB_4filt_exp_1x1conv2dbn", "trainable": true, "dtype": "float32", "axis": [3], "momentum": 0.99, "epsilon": 0.001, "center": true, "scale": false, "beta_initializer": {"class_name": "Zeros", "config": {"dtype": "float32"}}, "gamma_initializer": {"class_name": "Ones", "config": {"dtype": "float32"}}, "moving_mean_initializer": {"class_name": "Zeros", "config": {"dtype": "float32"}}, "moving_variance_initializer": {"class_name": "Ones", "config": {"dtype": "float32"}}, "beta_regularizer": null, "gamma_regularizer": null, "beta_constraint": null, "gamma_constraint": null}, "inbound_nodes": [[["incresB_4filt_exp_1x1conv2d", 0, 0, {}]]]}, {"name": "incresB_4act_scaling", "class_name": "Lambda", "config": {"name": "incresB_4act_scaling", "trainable": true, "dtype": "float32", "function": ["4wIAAAAAAAAAAgAAAAMAAABTAAAAcxQAAAB8AGQBGQB8AGQCGQB8ARQAFwBTACkDTukAAAAA6QEA\nAACpACkC2gZpbnB1dHPaBXNjYWxlcgMAAAByAwAAAPoePGlweXRob24taW5wdXQtMS1kZGI3YWQx\nZTc0MzU+2gg8bGFtYmRhPiQAAABzAAAAAA==\n", null, null], "module": "__main__", "function_type": "lambda", "output_shape": [10, 6, 1152], "output_shape_type": "raw", "output_shape_module": null, "arguments": {"scale": 0.1}}, "inbound_nodes": [[["incresB_3act_scaling", 0, 0, {}], ["incresB_4filt_exp_1x1conv2dbn", 0, 0, {}]]]}, {"name": "incresB_5b1_1conv2d", "class_name": "Conv2D", "config": {"name": "incresB_5b1_1conv2d", "trainable": true, "dtype": "float32", "filters": 128, "kernel_size": [1, 1], "strides": [1, 1], "padding": "same", "data_format": "channels_last", "dilation_rate": [1, 1], "activation": "linear", "use_bias": false, "kernel_initializer": {"class_name": "GlorotUniform", "config": {"seed": null, "dtype": "float32"}}, "bias_initializer": {"class_name": "Zeros", "config": {"dtype": "float32"}}, "kernel_regularizer": null, "bias_regularizer": null, "activity_regularizer": null, "kernel_constraint": null, "bias_constraint": null}, "inbound_nodes": [[["incresB_4act_scaling", 0, 0, {}]]]}, {"name": "incresB_5b1_1conv2dbn", "class_name": "BatchNormalization", "config": {"name": "incresB_5b1_1conv2dbn", "trainable": true, "dtype": "float32", "axis": [3], "momentum": 0.99, "epsilon": 0.001, "center": true, "scale": false, "beta_initializer": {"class_name": "Zeros", "config": {"dtype": "float32"}}, "gamma_initializer": {"class_name": "Ones", "config": {"dtype": "float32"}}, "moving_mean_initializer": {"class_name": "Zeros", "config": {"dtype": "float32"}}, "moving_variance_initializer": {"class_name": "Ones", "config": {"dtype": "float32"}}, "beta_regularizer": null, "gamma_regularizer": null, "beta_constraint": null, "gamma_constraint": null}, "inbound_nodes": [[["incresB_5b1_1conv2d", 0, 0, {}]]]}, {"name": "incresB_5b1_1conv2dact", "class_name": "Activation", "config": {"name": "incresB_5b1_1conv2dact", "trainable": true, "dtype": "float32", "activation": "relu"}, "inbound_nodes": [[["incresB_5b1_1conv2dbn", 0, 0, {}]]]}, {"name": "incresB_5b1_2conv2d", "class_name": "Conv2D", "config": {"name": "incresB_5b1_2conv2d", "trainable": true, "dtype": "float32", "filters": 160, "kernel_size": [1, 7], "strides": [1, 1], "padding": "same", "data_format": "channels_last", "dilation_rate": [1, 1], "activation": "linear", "use_bias": false, "kernel_initializer": {"class_name": "GlorotUniform", "config": {"seed": null, "dtype": "float32"}}, "bias_initializer": {"class_name": "Zeros", "config": {"dtype": "float32"}}, "kernel_regularizer": null, "bias_regularizer": null, "activity_regularizer": null, "kernel_constraint": null, "bias_constraint": null}, "inbound_nodes": [[["incresB_5b1_1conv2dact", 0, 0, {}]]]}, {"name": "incresB_5b1_2conv2dbn", "class_name": "BatchNormalization", "config": {"name": "incresB_5b1_2conv2dbn", "trainable": true, "dtype": "float32", "axis": [3], "momentum": 0.99, "epsilon": 0.001, "center": true, "scale": false, "beta_initializer": {"class_name": "Zeros", "config": {"dtype": "float32"}}, "gamma_initializer": {"class_name": "Ones", "config": {"dtype": "float32"}}, "moving_mean_initializer": {"class_name": "Zeros", "config": {"dtype": "float32"}}, "moving_variance_initializer": {"class_name": "Ones", "config": {"dtype": "float32"}}, "beta_regularizer": null, "gamma_regularizer": null, "beta_constraint": null, "gamma_constraint": null}, "inbound_nodes": [[["incresB_5b1_2conv2d", 0, 0, {}]]]}, {"name": "incresB_5b1_2conv2dact", "class_name": "Activation", "config": {"name": "incresB_5b1_2conv2dact", "trainable": true, "dtype": "float32", "activation": "relu"}, "inbound_nodes": [[["incresB_5b1_2conv2dbn", 0, 0, {}]]]}, {"name": "incresB_5b0conv2d", "class_name": "Conv2D", "config": {"name": "incresB_5b0conv2d", "trainable": true, "dtype": "float32", "filters": 192, "kernel_size": [1, 1], "strides": [1, 1], "padding": "same", "data_format": "channels_last", "dilation_rate": [1, 1], "activation": "linear", "use_bias": false, "kernel_initializer": {"class_name": "GlorotUniform", "config": {"seed": null, "dtype": "float32"}}, "bias_initializer": {"class_name": "Zeros", "config": {"dtype": "float32"}}, "kernel_regularizer": null, "bias_regularizer": null, "activity_regularizer": null, "kernel_constraint": null, "bias_constraint": null}, "inbound_nodes": [[["incresB_4act_scaling", 0, 0, {}]]]}, {"name": "incresB_5b1_3conv2d", "class_name": "Conv2D", "config": {"name": "incresB_5b1_3conv2d", "trainable": true, "dtype": "float32", "filters": 192, "kernel_size": [7, 1], "strides": [1, 1], "padding": "same", "data_format": "channels_last", "dilation_rate": [1, 1], "activation": "linear", "use_bias": false, "kernel_initializer": {"class_name": "GlorotUniform", "config": {"seed": null, "dtype": "float32"}}, "bias_initializer": {"class_name": "Zeros", "config": {"dtype": "float32"}}, "kernel_regularizer": null, "bias_regularizer": null, "activity_regularizer": null, "kernel_constraint": null, "bias_constraint": null}, "inbound_nodes": [[["incresB_5b1_2conv2dact", 0, 0, {}]]]}, {"name": "incresB_5b0conv2dbn", "class_name": "BatchNormalization", "config": {"name": "incresB_5b0conv2dbn", "trainable": true, "dtype": "float32", "axis": [3], "momentum": 0.99, "epsilon": 0.001, "center": true, "scale": false, "beta_initializer": {"class_name": "Zeros", "config": {"dtype": "float32"}}, "gamma_initializer": {"class_name": "Ones", "config": {"dtype": "float32"}}, "moving_mean_initializer": {"class_name": "Zeros", "config": {"dtype": "float32"}}, "moving_variance_initializer": {"class_name": "Ones", "config": {"dtype": "float32"}}, "beta_regularizer": null, "gamma_regularizer": null, "beta_constraint": null, "gamma_constraint": null}, "inbound_nodes": [[["incresB_5b0conv2d", 0, 0, {}]]]}, {"name": "incresB_5b1_3conv2dbn", "class_name": "BatchNormalization", "config": {"name": "incresB_5b1_3conv2dbn", "trainable": true, "dtype": "float32", "axis": [3], "momentum": 0.99, "epsilon": 0.001, "center": true, "scale": false, "beta_initializer": {"class_name": "Zeros", "config": {"dtype": "float32"}}, "gamma_initializer": {"class_name": "Ones", "config": {"dtype": "float32"}}, "moving_mean_initializer": {"class_name": "Zeros", "config": {"dtype": "float32"}}, "moving_variance_initializer": {"class_name": "Ones", "config": {"dtype": "float32"}}, "beta_regularizer": null, "gamma_regularizer": null, "beta_constraint": null, "gamma_constraint": null}, "inbound_nodes": [[["incresB_5b1_3conv2d", 0, 0, {}]]]}, {"name": "incresB_5b0conv2dact", "class_name": "Activation", "config": {"name": "incresB_5b0conv2dact", "trainable": true, "dtype": "float32", "activation": "relu"}, "inbound_nodes": [[["incresB_5b0conv2dbn", 0, 0, {}]]]}, {"name": "incresB_5b1_3conv2dact", "class_name": "Activation", "config": {"name": "incresB_5b1_3conv2dact", "trainable": true, "dtype": "float32", "activation": "relu"}, "inbound_nodes": [[["incresB_5b1_3conv2dbn", 0, 0, {}]]]}, {"name": "incresB_5_mixed", "class_name": "Concatenate", "config": {"name": "incresB_5_mixed", "trainable": true, "dtype": "float32", "axis": 3}, "inbound_nodes": [[["incresB_5b0conv2dact", 0, 0, {}], ["incresB_5b1_3conv2dact", 0, 0, {}]]]}, {"name": "incresB_5filt_exp_1x1conv2d", "class_name": "Conv2D", "config": {"name": "incresB_5filt_exp_1x1conv2d", "trainable": true, "dtype": "float32", "filters": 1152, "kernel_size": [1, 1], "strides": [1, 1], "padding": "same", "data_format": "channels_last", "dilation_rate": [1, 1], "activation": "linear", "use_bias": false, "kernel_initializer": {"class_name": "GlorotUniform", "config": {"seed": null, "dtype": "float32"}}, "bias_initializer": {"class_name": "Zeros", "config": {"dtype": "float32"}}, "kernel_regularizer": null, "bias_regularizer": null, "activity_regularizer": null, "kernel_constraint": null, "bias_constraint": null}, "inbound_nodes": [[["incresB_5_mixed", 0, 0, {}]]]}, {"name": "incresB_5filt_exp_1x1conv2dbn", "class_name": "BatchNormalization", "config": {"name": "incresB_5filt_exp_1x1conv2dbn", "trainable": true, "dtype": "float32", "axis": [3], "momentum": 0.99, "epsilon": 0.001, "center": true, "scale": false, "beta_initializer": {"class_name": "Zeros", "config": {"dtype": "float32"}}, "gamma_initializer": {"class_name": "Ones", "config": {"dtype": "float32"}}, "moving_mean_initializer": {"class_name": "Zeros", "config": {"dtype": "float32"}}, "moving_variance_initializer": {"class_name": "Ones", "config": {"dtype": "float32"}}, "beta_regularizer": null, "gamma_regularizer": null, "beta_constraint": null, "gamma_constraint": null}, "inbound_nodes": [[["incresB_5filt_exp_1x1conv2d", 0, 0, {}]]]}, {"name": "incresB_5act_scaling", "class_name": "Lambda", "config": {"name": "incresB_5act_scaling", "trainable": true, "dtype": "float32", "function": ["4wIAAAAAAAAAAgAAAAMAAABTAAAAcxQAAAB8AGQBGQB8AGQCGQB8ARQAFwBTACkDTukAAAAA6QEA\nAACpACkC2gZpbnB1dHPaBXNjYWxlcgMAAAByAwAAAPoePGlweXRob24taW5wdXQtMS1kZGI3YWQx\nZTc0MzU+2gg8bGFtYmRhPiQAAABzAAAAAA==\n", null, null], "module": "__main__", "function_type": "lambda", "output_shape": [10, 6, 1152], "output_shape_type": "raw", "output_shape_module": null, "arguments": {"scale": 0.1}}, "inbound_nodes": [[["incresB_4act_scaling", 0, 0, {}], ["incresB_5filt_exp_1x1conv2dbn", 0, 0, {}]]]}, {"name": "x_red2_c31conv2d", "class_name": "Conv2D", "config": {"name": "x_red2_c31conv2d", "trainable": true, "dtype": "float32", "filters": 256, "kernel_size": [1, 1], "strides": [1, 1], "padding": "same", "data_format": "channels_last", "dilation_rate": [1, 1], "activation": "linear", "use_bias": false, "kernel_initializer": {"class_name": "GlorotUniform", "config": {"seed": null, "dtype": "float32"}}, "bias_initializer": {"class_name": "Zeros", "config": {"dtype": "float32"}}, "kernel_regularizer": null, "bias_regularizer": null, "activity_regularizer": null, "kernel_constraint": null, "bias_constraint": null}, "inbound_nodes": [[["incresB_5act_scaling", 0, 0, {}]]]}, {"name": "x_red2_c31conv2dbn", "class_name": "BatchNormalization", "config": {"name": "x_red2_c31conv2dbn", "trainable": true, "dtype": "float32", "axis": [3], "momentum": 0.99, "epsilon": 0.001, "center": true, "scale": false, "beta_initializer": {"class_name": "Zeros", "config": {"dtype": "float32"}}, "gamma_initializer": {"class_name": "Ones", "config": {"dtype": "float32"}}, "moving_mean_initializer": {"class_name": "Zeros", "config": {"dtype": "float32"}}, "moving_variance_initializer": {"class_name": "Ones", "config": {"dtype": "float32"}}, "beta_regularizer": null, "gamma_regularizer": null, "beta_constraint": null, "gamma_constraint": null}, "inbound_nodes": [[["x_red2_c31conv2d", 0, 0, {}]]]}, {"name": "x_red2_c31conv2dact", "class_name": "Activation", "config": {"name": "x_red2_c31conv2dact", "trainable": true, "dtype": "float32", "activation": "relu"}, "inbound_nodes": [[["x_red2_c31conv2dbn", 0, 0, {}]]]}, {"name": "x_red2_c11conv2d", "class_name": "Conv2D", "config": {"name": "x_red2_c11conv2d", "trainable": true, "dtype": "float32", "filters": 256, "kernel_size": [1, 1], "strides": [1, 1], "padding": "same", "data_format": "channels_last", "dilation_rate": [1, 1], "activation": "linear", "use_bias": false, "kernel_initializer": {"class_name": "GlorotUniform", "config": {"seed": null, "dtype": "float32"}}, "bias_initializer": {"class_name": "Zeros", "config": {"dtype": "float32"}}, "kernel_regularizer": null, "bias_regularizer": null, "activity_regularizer": null, "kernel_constraint": null, "bias_constraint": null}, "inbound_nodes": [[["incresB_5act_scaling", 0, 0, {}]]]}, {"name": "x_red2_c21conv2d", "class_name": "Conv2D", "config": {"name": "x_red2_c21conv2d", "trainable": true, "dtype": "float32", "filters": 256, "kernel_size": [1, 1], "strides": [1, 1], "padding": "same", "data_format": "channels_last", "dilation_rate": [1, 1], "activation": "linear", "use_bias": false, "kernel_initializer": {"class_name": "GlorotUniform", "config": {"seed": null, "dtype": "float32"}}, "bias_initializer": {"class_name": "Zeros", "config": {"dtype": "float32"}}, "kernel_regularizer": null, "bias_regularizer": null, "activity_regularizer": null, "kernel_constraint": null, "bias_constraint": null}, "inbound_nodes": [[["incresB_5act_scaling", 0, 0, {}]]]}, {"name": "x_red2_c32conv2d", "class_name": "Conv2D", "config": {"name": "x_red2_c32conv2d", "trainable": true, "dtype": "float32", "filters": 256, "kernel_size": [3, 3], "strides": [1, 1], "padding": "same", "data_format": "channels_last", "dilation_rate": [1, 1], "activation": "linear", "use_bias": false, "kernel_initializer": {"class_name": "GlorotUniform", "config": {"seed": null, "dtype": "float32"}}, "bias_initializer": {"class_name": "Zeros", "config": {"dtype": "float32"}}, "kernel_regularizer": null, "bias_regularizer": null, "activity_regularizer": null, "kernel_constraint": null, "bias_constraint": null}, "inbound_nodes": [[["x_red2_c31conv2dact", 0, 0, {}]]]}, {"name": "x_red2_c11conv2dbn", "class_name": "BatchNormalization", "config": {"name": "x_red2_c11conv2dbn", "trainable": true, "dtype": "float32", "axis": [3], "momentum": 0.99, "epsilon": 0.001, "center": true, "scale": false, "beta_initializer": {"class_name": "Zeros", "config": {"dtype": "float32"}}, "gamma_initializer": {"class_name": "Ones", "config": {"dtype": "float32"}}, "moving_mean_initializer": {"class_name": "Zeros", "config": {"dtype": "float32"}}, "moving_variance_initializer": {"class_name": "Ones", "config": {"dtype": "float32"}}, "beta_regularizer": null, "gamma_regularizer": null, "beta_constraint": null, "gamma_constraint": null}, "inbound_nodes": [[["x_red2_c11conv2d", 0, 0, {}]]]}, {"name": "x_red2_c21conv2dbn", "class_name": "BatchNormalization", "config": {"name": "x_red2_c21conv2dbn", "trainable": true, "dtype": "float32", "axis": [3], "momentum": 0.99, "epsilon": 0.001, "center": true, "scale": false, "beta_initializer": {"class_name": "Zeros", "config": {"dtype": "float32"}}, "gamma_initializer": {"class_name": "Ones", "config": {"dtype": "float32"}}, "moving_mean_initializer": {"class_name": "Zeros", "config": {"dtype": "float32"}}, "moving_variance_initializer": {"class_name": "Ones", "config": {"dtype": "float32"}}, "beta_regularizer": null, "gamma_regularizer": null, "beta_constraint": null, "gamma_constraint": null}, "inbound_nodes": [[["x_red2_c21conv2d", 0, 0, {}]]]}, {"name": "x_red2_c32conv2dbn", "class_name": "BatchNormalization", "config": {"name": "x_red2_c32conv2dbn", "trainable": true, "dtype": "float32", "axis": [3], "momentum": 0.99, "epsilon": 0.001, "center": true, "scale": false, "beta_initializer": {"class_name": "Zeros", "config": {"dtype": "float32"}}, "gamma_initializer": {"class_name": "Ones", "config": {"dtype": "float32"}}, "moving_mean_initializer": {"class_name": "Zeros", "config": {"dtype": "float32"}}, "moving_variance_initializer": {"class_name": "Ones", "config": {"dtype": "float32"}}, "beta_regularizer": null, "gamma_regularizer": null, "beta_constraint": null, "gamma_constraint": null}, "inbound_nodes": [[["x_red2_c32conv2d", 0, 0, {}]]]}, {"name": "x_red2_c11conv2dact", "class_name": "Activation", "config": {"name": "x_red2_c11conv2dact", "trainable": true, "dtype": "float32", "activation": "relu"}, "inbound_nodes": [[["x_red2_c11conv2dbn", 0, 0, {}]]]}, {"name": "x_red2_c21conv2dact", "class_name": "Activation", "config": {"name": "x_red2_c21conv2dact", "trainable": true, "dtype": "float32", "activation": "relu"}, "inbound_nodes": [[["x_red2_c21conv2dbn", 0, 0, {}]]]}, {"name": "x_red2_c32conv2dact", "class_name": "Activation", "config": {"name": "x_red2_c32conv2dact", "trainable": true, "dtype": "float32", "activation": "relu"}, "inbound_nodes": [[["x_red2_c32conv2dbn", 0, 0, {}]]]}, {"name": "x_red2_c12conv2d", "class_name": "Conv2D", "config": {"name": "x_red2_c12conv2d", "trainable": true, "dtype": "float32", "filters": 384, "kernel_size": [3, 3], "strides": [2, 2], "padding": "valid", "data_format": "channels_last", "dilation_rate": [1, 1], "activation": "linear", "use_bias": false, "kernel_initializer": {"class_name": "GlorotUniform", "config": {"seed": null, "dtype": "float32"}}, "bias_initializer": {"class_name": "Zeros", "config": {"dtype": "float32"}}, "kernel_regularizer": null, "bias_regularizer": null, "activity_regularizer": null, "kernel_constraint": null, "bias_constraint": null}, "inbound_nodes": [[["x_red2_c11conv2dact", 0, 0, {}]]]}, {"name": "x_red2_c22conv2d", "class_name": "Conv2D", "config": {"name": "x_red2_c22conv2d", "trainable": true, "dtype": "float32", "filters": 256, "kernel_size": [3, 3], "strides": [2, 2], "padding": "valid", "data_format": "channels_last", "dilation_rate": [1, 1], "activation": "linear", "use_bias": false, "kernel_initializer": {"class_name": "GlorotUniform", "config": {"seed": null, "dtype": "float32"}}, "bias_initializer": {"class_name": "Zeros", "config": {"dtype": "float32"}}, "kernel_regularizer": null, "bias_regularizer": null, "activity_regularizer": null, "kernel_constraint": null, "bias_constraint": null}, "inbound_nodes": [[["x_red2_c21conv2dact", 0, 0, {}]]]}, {"name": "x_red2_c33conv2d", "class_name": "Conv2D", "config": {"name": "x_red2_c33conv2d", "trainable": true, "dtype": "float32", "filters": 256, "kernel_size": [3, 3], "strides": [2, 2], "padding": "valid", "data_format": "channels_last", "dilation_rate": [1, 1], "activation": "linear", "use_bias": false, "kernel_initializer": {"class_name": "GlorotUniform", "config": {"seed": null, "dtype": "float32"}}, "bias_initializer": {"class_name": "Zeros", "config": {"dtype": "float32"}}, "kernel_regularizer": null, "bias_regularizer": null, "activity_regularizer": null, "kernel_constraint": null, "bias_constraint": null}, "inbound_nodes": [[["x_red2_c32conv2dact", 0, 0, {}]]]}, {"name": "x_red2_c12conv2dbn", "class_name": "BatchNormalization", "config": {"name": "x_red2_c12conv2dbn", "trainable": true, "dtype": "float32", "axis": [3], "momentum": 0.99, "epsilon": 0.001, "center": true, "scale": false, "beta_initializer": {"class_name": "Zeros", "config": {"dtype": "float32"}}, "gamma_initializer": {"class_name": "Ones", "config": {"dtype": "float32"}}, "moving_mean_initializer": {"class_name": "Zeros", "config": {"dtype": "float32"}}, "moving_variance_initializer": {"class_name": "Ones", "config": {"dtype": "float32"}}, "beta_regularizer": null, "gamma_regularizer": null, "beta_constraint": null, "gamma_constraint": null}, "inbound_nodes": [[["x_red2_c12conv2d", 0, 0, {}]]]}, {"name": "x_red2_c22conv2dbn", "class_name": "BatchNormalization", "config": {"name": "x_red2_c22conv2dbn", "trainable": true, "dtype": "float32", "axis": [3], "momentum": 0.99, "epsilon": 0.001, "center": true, "scale": false, "beta_initializer": {"class_name": "Zeros", "config": {"dtype": "float32"}}, "gamma_initializer": {"class_name": "Ones", "config": {"dtype": "float32"}}, "moving_mean_initializer": {"class_name": "Zeros", "config": {"dtype": "float32"}}, "moving_variance_initializer": {"class_name": "Ones", "config": {"dtype": "float32"}}, "beta_regularizer": null, "gamma_regularizer": null, "beta_constraint": null, "gamma_constraint": null}, "inbound_nodes": [[["x_red2_c22conv2d", 0, 0, {}]]]}, {"name": "x_red2_c33conv2dbn", "class_name": "BatchNormalization", "config": {"name": "x_red2_c33conv2dbn", "trainable": true, "dtype": "float32", "axis": [3], "momentum": 0.99, "epsilon": 0.001, "center": true, "scale": false, "beta_initializer": {"class_name": "Zeros", "config": {"dtype": "float32"}}, "gamma_initializer": {"class_name": "Ones", "config": {"dtype": "float32"}}, "moving_mean_initializer": {"class_name": "Zeros", "config": {"dtype": "float32"}}, "moving_variance_initializer": {"class_name": "Ones", "config": {"dtype": "float32"}}, "beta_regularizer": null, "gamma_regularizer": null, "beta_constraint": null, "gamma_constraint": null}, "inbound_nodes": [[["x_red2_c33conv2d", 0, 0, {}]]]}, {"name": "red_maxpool_2", "class_name": "MaxPooling2D", "config": {"name": "red_maxpool_2", "trainable": true, "dtype": "float32", "pool_size": [3, 3], "padding": "valid", "strides": [2, 2], "data_format": "channels_last"}, "inbound_nodes": [[["incresB_5act_scaling", 0, 0, {}]]]}, {"name": "x_red2_c12conv2dact", "class_name": "Activation", "config": {"name": "x_red2_c12conv2dact", "trainable": true, "dtype": "float32", "activation": "relu"}, "inbound_nodes": [[["x_red2_c12conv2dbn", 0, 0, {}]]]}, {"name": "x_red2_c22conv2dact", "class_name": "Activation", "config": {"name": "x_red2_c22conv2dact", "trainable": true, "dtype": "float32", "activation": "relu"}, "inbound_nodes": [[["x_red2_c22conv2dbn", 0, 0, {}]]]}, {"name": "x_red2_c33conv2dact", "class_name": "Activation", "config": {"name": "x_red2_c33conv2dact", "trainable": true, "dtype": "float32", "activation": "relu"}, "inbound_nodes": [[["x_red2_c33conv2dbn", 0, 0, {}]]]}, {"name": "red_concat_2", "class_name": "Concatenate", "config": {"name": "red_concat_2", "trainable": true, "dtype": "float32", "axis": 3}, "inbound_nodes": [[["red_maxpool_2", 0, 0, {}], ["x_red2_c12conv2dact", 0, 0, {}], ["x_red2_c22conv2dact", 0, 0, {}], ["x_red2_c33conv2dact", 0, 0, {}]]]}, {"name": "incresC_1b1_1conv2d", "class_name": "Conv2D", "config": {"name": "incresC_1b1_1conv2d", "trainable": true, "dtype": "float32", "filters": 192, "kernel_size": [1, 1], "strides": [1, 1], "padding": "same", "data_format": "channels_last", "dilation_rate": [1, 1], "activation": "linear", "use_bias": false, "kernel_initializer": {"class_name": "GlorotUniform", "config": {"seed": null, "dtype": "float32"}}, "bias_initializer": {"class_name": "Zeros", "config": {"dtype": "float32"}}, "kernel_regularizer": null, "bias_regularizer": null, "activity_regularizer": null, "kernel_constraint": null, "bias_constraint": null}, "inbound_nodes": [[["red_concat_2", 0, 0, {}]]]}, {"name": "incresC_1b1_1conv2dbn", "class_name": "BatchNormalization", "config": {"name": "incresC_1b1_1conv2dbn", "trainable": true, "dtype": "float32", "axis": [3], "momentum": 0.99, "epsilon": 0.001, "center": true, "scale": false, "beta_initializer": {"class_name": "Zeros", "config": {"dtype": "float32"}}, "gamma_initializer": {"class_name": "Ones", "config": {"dtype": "float32"}}, "moving_mean_initializer": {"class_name": "Zeros", "config": {"dtype": "float32"}}, "moving_variance_initializer": {"class_name": "Ones", "config": {"dtype": "float32"}}, "beta_regularizer": null, "gamma_regularizer": null, "beta_constraint": null, "gamma_constraint": null}, "inbound_nodes": [[["incresC_1b1_1conv2d", 0, 0, {}]]]}, {"name": "incresC_1b1_1conv2dact", "class_name": "Activation", "config": {"name": "incresC_1b1_1conv2dact", "trainable": true, "dtype": "float32", "activation": "relu"}, "inbound_nodes": [[["incresC_1b1_1conv2dbn", 0, 0, {}]]]}, {"name": "incresC_1b1_2conv2d", "class_name": "Conv2D", "config": {"name": "incresC_1b1_2conv2d", "trainable": true, "dtype": "float32", "filters": 224, "kernel_size": [1, 3], "strides": [1, 1], "padding": "same", "data_format": "channels_last", "dilation_rate": [1, 1], "activation": "linear", "use_bias": false, "kernel_initializer": {"class_name": "GlorotUniform", "config": {"seed": null, "dtype": "float32"}}, "bias_initializer": {"class_name": "Zeros", "config": {"dtype": "float32"}}, "kernel_regularizer": null, "bias_regularizer": null, "activity_regularizer": null, "kernel_constraint": null, "bias_constraint": null}, "inbound_nodes": [[["incresC_1b1_1conv2dact", 0, 0, {}]]]}, {"name": "incresC_1b1_2conv2dbn", "class_name": "BatchNormalization", "config": {"name": "incresC_1b1_2conv2dbn", "trainable": true, "dtype": "float32", "axis": [3], "momentum": 0.99, "epsilon": 0.001, "center": true, "scale": false, "beta_initializer": {"class_name": "Zeros", "config": {"dtype": "float32"}}, "gamma_initializer": {"class_name": "Ones", "config": {"dtype": "float32"}}, "moving_mean_initializer": {"class_name": "Zeros", "config": {"dtype": "float32"}}, "moving_variance_initializer": {"class_name": "Ones", "config": {"dtype": "float32"}}, "beta_regularizer": null, "gamma_regularizer": null, "beta_constraint": null, "gamma_constraint": null}, "inbound_nodes": [[["incresC_1b1_2conv2d", 0, 0, {}]]]}, {"name": "incresC_1b1_2conv2dact", "class_name": "Activation", "config": {"name": "incresC_1b1_2conv2dact", "trainable": true, "dtype": "float32", "activation": "relu"}, "inbound_nodes": [[["incresC_1b1_2conv2dbn", 0, 0, {}]]]}, {"name": "incresC_1b0conv2d", "class_name": "Conv2D", "config": {"name": "incresC_1b0conv2d", "trainable": true, "dtype": "float32", "filters": 192, "kernel_size": [1, 1], "strides": [1, 1], "padding": "same", "data_format": "channels_last", "dilation_rate": [1, 1], "activation": "linear", "use_bias": false, "kernel_initializer": {"class_name": "GlorotUniform", "config": {"seed": null, "dtype": "float32"}}, "bias_initializer": {"class_name": "Zeros", "config": {"dtype": "float32"}}, "kernel_regularizer": null, "bias_regularizer": null, "activity_regularizer": null, "kernel_constraint": null, "bias_constraint": null}, "inbound_nodes": [[["red_concat_2", 0, 0, {}]]]}, {"name": "incresC_1b1_3conv2d", "class_name": "Conv2D", "config": {"name": "incresC_1b1_3conv2d", "trainable": true, "dtype": "float32", "filters": 256, "kernel_size": [3, 1], "strides": [1, 1], "padding": "same", "data_format": "channels_last", "dilation_rate": [1, 1], "activation": "linear", "use_bias": false, "kernel_initializer": {"class_name": "GlorotUniform", "config": {"seed": null, "dtype": "float32"}}, "bias_initializer": {"class_name": "Zeros", "config": {"dtype": "float32"}}, "kernel_regularizer": null, "bias_regularizer": null, "activity_regularizer": null, "kernel_constraint": null, "bias_constraint": null}, "inbound_nodes": [[["incresC_1b1_2conv2dact", 0, 0, {}]]]}, {"name": "incresC_1b0conv2dbn", "class_name": "BatchNormalization", "config": {"name": "incresC_1b0conv2dbn", "trainable": true, "dtype": "float32", "axis": [3], "momentum": 0.99, "epsilon": 0.001, "center": true, "scale": false, "beta_initializer": {"class_name": "Zeros", "config": {"dtype": "float32"}}, "gamma_initializer": {"class_name": "Ones", "config": {"dtype": "float32"}}, "moving_mean_initializer": {"class_name": "Zeros", "config": {"dtype": "float32"}}, "moving_variance_initializer": {"class_name": "Ones", "config": {"dtype": "float32"}}, "beta_regularizer": null, "gamma_regularizer": null, "beta_constraint": null, "gamma_constraint": null}, "inbound_nodes": [[["incresC_1b0conv2d", 0, 0, {}]]]}, {"name": "incresC_1b1_3conv2dbn", "class_name": "BatchNormalization", "config": {"name": "incresC_1b1_3conv2dbn", "trainable": true, "dtype": "float32", "axis": [3], "momentum": 0.99, "epsilon": 0.001, "center": true, "scale": false, "beta_initializer": {"class_name": "Zeros", "config": {"dtype": "float32"}}, "gamma_initializer": {"class_name": "Ones", "config": {"dtype": "float32"}}, "moving_mean_initializer": {"class_name": "Zeros", "config": {"dtype": "float32"}}, "moving_variance_initializer": {"class_name": "Ones", "config": {"dtype": "float32"}}, "beta_regularizer": null, "gamma_regularizer": null, "beta_constraint": null, "gamma_constraint": null}, "inbound_nodes": [[["incresC_1b1_3conv2d", 0, 0, {}]]]}, {"name": "incresC_1b0conv2dact", "class_name": "Activation", "config": {"name": "incresC_1b0conv2dact", "trainable": true, "dtype": "float32", "activation": "relu"}, "inbound_nodes": [[["incresC_1b0conv2dbn", 0, 0, {}]]]}, {"name": "incresC_1b1_3conv2dact", "class_name": "Activation", "config": {"name": "incresC_1b1_3conv2dact", "trainable": true, "dtype": "float32", "activation": "relu"}, "inbound_nodes": [[["incresC_1b1_3conv2dbn", 0, 0, {}]]]}, {"name": "incresC_1_mixed", "class_name": "Concatenate", "config": {"name": "incresC_1_mixed", "trainable": true, "dtype": "float32", "axis": 3}, "inbound_nodes": [[["incresC_1b0conv2dact", 0, 0, {}], ["incresC_1b1_3conv2dact", 0, 0, {}]]]}, {"name": "incresC_1fin1x1conv2d", "class_name": "Conv2D", "config": {"name": "incresC_1fin1x1conv2d", "trainable": true, "dtype": "float32", "filters": 2048, "kernel_size": [1, 1], "strides": [1, 1], "padding": "same", "data_format": "channels_last", "dilation_rate": [1, 1], "activation": "linear", "use_bias": false, "kernel_initializer": {"class_name": "GlorotUniform", "config": {"seed": null, "dtype": "float32"}}, "bias_initializer": {"class_name": "Zeros", "config": {"dtype": "float32"}}, "kernel_regularizer": null, "bias_regularizer": null, "activity_regularizer": null, "kernel_constraint": null, "bias_constraint": null}, "inbound_nodes": [[["incresC_1_mixed", 0, 0, {}]]]}, {"name": "incresC_1fin1x1conv2dbn", "class_name": "BatchNormalization", "config": {"name": "incresC_1fin1x1conv2dbn", "trainable": true, "dtype": "float32", "axis": [3], "momentum": 0.99, "epsilon": 0.001, "center": true, "scale": false, "beta_initializer": {"class_name": "Zeros", "config": {"dtype": "float32"}}, "gamma_initializer": {"class_name": "Ones", "config": {"dtype": "float32"}}, "moving_mean_initializer": {"class_name": "Zeros", "config": {"dtype": "float32"}}, "moving_variance_initializer": {"class_name": "Ones", "config": {"dtype": "float32"}}, "beta_regularizer": null, "gamma_regularizer": null, "beta_constraint": null, "gamma_constraint": null}, "inbound_nodes": [[["incresC_1fin1x1conv2d", 0, 0, {}]]]}, {"name": "incresC_1act_saling", "class_name": "Lambda", "config": {"name": "incresC_1act_saling", "trainable": true, "dtype": "float32", "function": ["4wIAAAAAAAAAAgAAAAMAAABTAAAAcxQAAAB8AGQBGQB8AGQCGQB8ARQAFwBTACkDTukAAAAA6QEA\nAACpACkC2gZpbnB1dHPaBXNjYWxlcgMAAAByAwAAAPoePGlweXRob24taW5wdXQtMS1kZGI3YWQx\nZTc0MzU+2gg8bGFtYmRhPjMAAABzAAAAAA==\n", null, null], "module": "__main__", "function_type": "lambda", "output_shape": [4, 2, 2048], "output_shape_type": "raw", "output_shape_module": null, "arguments": {"scale": 0.2}}, "inbound_nodes": [[["red_concat_2", 0, 0, {}], ["incresC_1fin1x1conv2dbn", 0, 0, {}]]]}, {"name": "incresC_2b1_1conv2d", "class_name": "Conv2D", "config": {"name": "incresC_2b1_1conv2d", "trainable": true, "dtype": "float32", "filters": 192, "kernel_size": [1, 1], "strides": [1, 1], "padding": "same", "data_format": "channels_last", "dilation_rate": [1, 1], "activation": "linear", "use_bias": false, "kernel_initializer": {"class_name": "GlorotUniform", "config": {"seed": null, "dtype": "float32"}}, "bias_initializer": {"class_name": "Zeros", "config": {"dtype": "float32"}}, "kernel_regularizer": null, "bias_regularizer": null, "activity_regularizer": null, "kernel_constraint": null, "bias_constraint": null}, "inbound_nodes": [[["incresC_1act_saling", 0, 0, {}]]]}, {"name": "incresC_2b1_1conv2dbn", "class_name": "BatchNormalization", "config": {"name": "incresC_2b1_1conv2dbn", "trainable": true, "dtype": "float32", "axis": [3], "momentum": 0.99, "epsilon": 0.001, "center": true, "scale": false, "beta_initializer": {"class_name": "Zeros", "config": {"dtype": "float32"}}, "gamma_initializer": {"class_name": "Ones", "config": {"dtype": "float32"}}, "moving_mean_initializer": {"class_name": "Zeros", "config": {"dtype": "float32"}}, "moving_variance_initializer": {"class_name": "Ones", "config": {"dtype": "float32"}}, "beta_regularizer": null, "gamma_regularizer": null, "beta_constraint": null, "gamma_constraint": null}, "inbound_nodes": [[["incresC_2b1_1conv2d", 0, 0, {}]]]}, {"name": "incresC_2b1_1conv2dact", "class_name": "Activation", "config": {"name": "incresC_2b1_1conv2dact", "trainable": true, "dtype": "float32", "activation": "relu"}, "inbound_nodes": [[["incresC_2b1_1conv2dbn", 0, 0, {}]]]}, {"name": "incresC_2b1_2conv2d", "class_name": "Conv2D", "config": {"name": "incresC_2b1_2conv2d", "trainable": true, "dtype": "float32", "filters": 224, "kernel_size": [1, 3], "strides": [1, 1], "padding": "same", "data_format": "channels_last", "dilation_rate": [1, 1], "activation": "linear", "use_bias": false, "kernel_initializer": {"class_name": "GlorotUniform", "config": {"seed": null, "dtype": "float32"}}, "bias_initializer": {"class_name": "Zeros", "config": {"dtype": "float32"}}, "kernel_regularizer": null, "bias_regularizer": null, "activity_regularizer": null, "kernel_constraint": null, "bias_constraint": null}, "inbound_nodes": [[["incresC_2b1_1conv2dact", 0, 0, {}]]]}, {"name": "incresC_2b1_2conv2dbn", "class_name": "BatchNormalization", "config": {"name": "incresC_2b1_2conv2dbn", "trainable": true, "dtype": "float32", "axis": [3], "momentum": 0.99, "epsilon": 0.001, "center": true, "scale": false, "beta_initializer": {"class_name": "Zeros", "config": {"dtype": "float32"}}, "gamma_initializer": {"class_name": "Ones", "config": {"dtype": "float32"}}, "moving_mean_initializer": {"class_name": "Zeros", "config": {"dtype": "float32"}}, "moving_variance_initializer": {"class_name": "Ones", "config": {"dtype": "float32"}}, "beta_regularizer": null, "gamma_regularizer": null, "beta_constraint": null, "gamma_constraint": null}, "inbound_nodes": [[["incresC_2b1_2conv2d", 0, 0, {}]]]}, {"name": "incresC_2b1_2conv2dact", "class_name": "Activation", "config": {"name": "incresC_2b1_2conv2dact", "trainable": true, "dtype": "float32", "activation": "relu"}, "inbound_nodes": [[["incresC_2b1_2conv2dbn", 0, 0, {}]]]}, {"name": "incresC_2b0conv2d", "class_name": "Conv2D", "config": {"name": "incresC_2b0conv2d", "trainable": true, "dtype": "float32", "filters": 192, "kernel_size": [1, 1], "strides": [1, 1], "padding": "same", "data_format": "channels_last", "dilation_rate": [1, 1], "activation": "linear", "use_bias": false, "kernel_initializer": {"class_name": "GlorotUniform", "config": {"seed": null, "dtype": "float32"}}, "bias_initializer": {"class_name": "Zeros", "config": {"dtype": "float32"}}, "kernel_regularizer": null, "bias_regularizer": null, "activity_regularizer": null, "kernel_constraint": null, "bias_constraint": null}, "inbound_nodes": [[["incresC_1act_saling", 0, 0, {}]]]}, {"name": "incresC_2b1_3conv2d", "class_name": "Conv2D", "config": {"name": "incresC_2b1_3conv2d", "trainable": true, "dtype": "float32", "filters": 256, "kernel_size": [3, 1], "strides": [1, 1], "padding": "same", "data_format": "channels_last", "dilation_rate": [1, 1], "activation": "linear", "use_bias": false, "kernel_initializer": {"class_name": "GlorotUniform", "config": {"seed": null, "dtype": "float32"}}, "bias_initializer": {"class_name": "Zeros", "config": {"dtype": "float32"}}, "kernel_regularizer": null, "bias_regularizer": null, "activity_regularizer": null, "kernel_constraint": null, "bias_constraint": null}, "inbound_nodes": [[["incresC_2b1_2conv2dact", 0, 0, {}]]]}, {"name": "incresC_2b0conv2dbn", "class_name": "BatchNormalization", "config": {"name": "incresC_2b0conv2dbn", "trainable": true, "dtype": "float32", "axis": [3], "momentum": 0.99, "epsilon": 0.001, "center": true, "scale": false, "beta_initializer": {"class_name": "Zeros", "config": {"dtype": "float32"}}, "gamma_initializer": {"class_name": "Ones", "config": {"dtype": "float32"}}, "moving_mean_initializer": {"class_name": "Zeros", "config": {"dtype": "float32"}}, "moving_variance_initializer": {"class_name": "Ones", "config": {"dtype": "float32"}}, "beta_regularizer": null, "gamma_regularizer": null, "beta_constraint": null, "gamma_constraint": null}, "inbound_nodes": [[["incresC_2b0conv2d", 0, 0, {}]]]}, {"name": "incresC_2b1_3conv2dbn", "class_name": "BatchNormalization", "config": {"name": "incresC_2b1_3conv2dbn", "trainable": true, "dtype": "float32", "axis": [3], "momentum": 0.99, "epsilon": 0.001, "center": true, "scale": false, "beta_initializer": {"class_name": "Zeros", "config": {"dtype": "float32"}}, "gamma_initializer": {"class_name": "Ones", "config": {"dtype": "float32"}}, "moving_mean_initializer": {"class_name": "Zeros", "config": {"dtype": "float32"}}, "moving_variance_initializer": {"class_name": "Ones", "config": {"dtype": "float32"}}, "beta_regularizer": null, "gamma_regularizer": null, "beta_constraint": null, "gamma_constraint": null}, "inbound_nodes": [[["incresC_2b1_3conv2d", 0, 0, {}]]]}, {"name": "incresC_2b0conv2dact", "class_name": "Activation", "config": {"name": "incresC_2b0conv2dact", "trainable": true, "dtype": "float32", "activation": "relu"}, "inbound_nodes": [[["incresC_2b0conv2dbn", 0, 0, {}]]]}, {"name": "incresC_2b1_3conv2dact", "class_name": "Activation", "config": {"name": "incresC_2b1_3conv2dact", "trainable": true, "dtype": "float32", "activation": "relu"}, "inbound_nodes": [[["incresC_2b1_3conv2dbn", 0, 0, {}]]]}, {"name": "incresC_2_mixed", "class_name": "Concatenate", "config": {"name": "incresC_2_mixed", "trainable": true, "dtype": "float32", "axis": 3}, "inbound_nodes": [[["incresC_2b0conv2dact", 0, 0, {}], ["incresC_2b1_3conv2dact", 0, 0, {}]]]}, {"name": "input_2", "class_name": "InputLayer", "config": {"batch_input_shape": [null, 25, 45, 1], "dtype": "float32", "sparse": false, "name": "input_2"}, "inbound_nodes": []}, {"name": "input_3", "class_name": "InputLayer", "config": {"batch_input_shape": [null, 25, 35, 1], "dtype": "float32", "sparse": false, "name": "input_3"}, "inbound_nodes": []}, {"name": "incresC_2fin1x1conv2d", "class_name": "Conv2D", "config": {"name": "incresC_2fin1x1conv2d", "trainable": true, "dtype": "float32", "filters": 2048, "kernel_size": [1, 1], "strides": [1, 1], "padding": "same", "data_format": "channels_last", "dilation_rate": [1, 1], "activation": "linear", "use_bias": false, "kernel_initializer": {"class_name": "GlorotUniform", "config": {"seed": null, "dtype": "float32"}}, "bias_initializer": {"class_name": "Zeros", "config": {"dtype": "float32"}}, "kernel_regularizer": null, "bias_regularizer": null, "activity_regularizer": null, "kernel_constraint": null, "bias_constraint": null}, "inbound_nodes": [[["incresC_2_mixed", 0, 0, {}]]]}, {"name": "conv2d", "class_name": "Conv2D", "config": {"name": "conv2d", "trainable": true, "dtype": "float32", "filters": 32, "kernel_size": [3, 3], "strides": [1, 1], "padding": "valid", "data_format": "channels_last", "dilation_rate": [1, 1], "activation": "relu", "use_bias": true, "kernel_initializer": {"class_name": "GlorotUniform", "config": {"seed": null, "dtype": "float32"}}, "bias_initializer": {"class_name": "Zeros", "config": {"dtype": "float32"}}, "kernel_regularizer": null, "bias_regularizer": null, "activity_regularizer": null, "kernel_constraint": null, "bias_constraint": null}, "inbound_nodes": [[["input_2", 0, 0, {}]]]}, {"name": "conv2d_2", "class_name": "Conv2D", "config": {"name": "conv2d_2", "trainable": true, "dtype": "float32", "filters": 32, "kernel_size": [3, 3], "strides": [1, 1], "padding": "valid", "data_format": "channels_last", "dilation_rate": [1, 1], "activation": "relu", "use_bias": true, "kernel_initializer": {"class_name": "GlorotUniform", "config": {"seed": null, "dtype": "float32"}}, "bias_initializer": {"class_name": "Zeros", "config": {"dtype": "float32"}}, "kernel_regularizer": null, "bias_regularizer": null, "activity_regularizer": null, "kernel_constraint": null, "bias_constraint": null}, "inbound_nodes": [[["input_3", 0, 0, {}]]]}, {"name": "incresC_2fin1x1conv2dbn", "class_name": "BatchNormalization", "config": {"name": "incresC_2fin1x1conv2dbn", "trainable": true, "dtype": "float32", "axis": [3], "momentum": 0.99, "epsilon": 0.001, "center": true, "scale": false, "beta_initializer": {"class_name": "Zeros", "config": {"dtype": "float32"}}, "gamma_initializer": {"class_name": "Ones", "config": {"dtype": "float32"}}, "moving_mean_initializer": {"class_name": "Zeros", "config": {"dtype": "float32"}}, "moving_variance_initializer": {"class_name": "Ones", "config": {"dtype": "float32"}}, "beta_regularizer": null, "gamma_regularizer": null, "beta_constraint": null, "gamma_constraint": null}, "inbound_nodes": [[["incresC_2fin1x1conv2d", 0, 0, {}]]]}, {"name": "max_pooling2d", "class_name": "MaxPooling2D", "config": {"name": "max_pooling2d", "trainable": true, "dtype": "float32", "pool_size": [2, 2], "padding": "valid", "strides": [2, 2], "data_format": "channels_last"}, "inbound_nodes": [[["conv2d", 0, 0, {}]]]}, {"name": "max_pooling2d_1", "class_name": "MaxPooling2D", "config": {"name": "max_pooling2d_1", "trainable": true, "dtype": "float32", "pool_size": [2, 2], "padding": "valid", "strides": [2, 2], "data_format": "channels_last"}, "inbound_nodes": [[["conv2d_2", 0, 0, {}]]]}, {"name": "incresC_2act_saling", "class_name": "Lambda", "config": {"name": "incresC_2act_saling", "trainable": true, "dtype": "float32", "function": ["4wIAAAAAAAAAAgAAAAMAAABTAAAAcxQAAAB8AGQBGQB8AGQCGQB8ARQAFwBTACkDTukAAAAA6QEA\nAACpACkC2gZpbnB1dHPaBXNjYWxlcgMAAAByAwAAAPoePGlweXRob24taW5wdXQtMS1kZGI3YWQx\nZTc0MzU+2gg8bGFtYmRhPjMAAABzAAAAAA==\n", null, null], "module": "__main__", "function_type": "lambda", "output_shape": [4, 2, 2048], "output_shape_type": "raw", "output_shape_module": null, "arguments": {"scale": 0.2}}, "inbound_nodes": [[["incresC_1act_saling", 0, 0, {}], ["incresC_2fin1x1conv2dbn", 0, 0, {}]]]}, {"name": "conv2d_1", "class_name": "Conv2D", "config": {"name": "conv2d_1", "trainable": true, "dtype": "float32", "filters": 64, "kernel_size": [3, 3], "strides": [1, 1], "padding": "valid", "data_format": "channels_last", "dilation_rate": [1, 1], "activation": "relu", "use_bias": true, "kernel_initializer": {"class_name": "GlorotUniform", "config": {"seed": null, "dtype": "float32"}}, "bias_initializer": {"class_name": "Zeros", "config": {"dtype": "float32"}}, "kernel_regularizer": null, "bias_regularizer": null, "activity_regularizer": null, "kernel_constraint": null, "bias_constraint": null}, "inbound_nodes": [[["max_pooling2d", 0, 0, {}]]]}, {"name": "conv2d_3", "class_name": "Conv2D", "config": {"name": "conv2d_3", "trainable": true, "dtype": "float32", "filters": 16, "kernel_size": [3, 3], "strides": [1, 1], "padding": "valid", "data_format": "channels_last", "dilation_rate": [1, 1], "activation": "relu", "use_bias": true, "kernel_initializer": {"class_name": "GlorotUniform", "config": {"seed": null, "dtype": "float32"}}, "bias_initializer": {"class_name": "Zeros", "config": {"dtype": "float32"}}, "kernel_regularizer": null, "bias_regularizer": null, "activity_regularizer": null, "kernel_constraint": null, "bias_constraint": null}, "inbound_nodes": [[["max_pooling2d_1", 0, 0, {}]]]}, {"name": "global_average_pooling2d", "class_name": "GlobalAveragePooling2D", "config": {"name": "global_average_pooling2d", "trainable": true, "dtype": "float32", "data_format": "channels_last"}, "inbound_nodes": [[["incresC_2act_saling", 0, 0, {}]]]}, {"name": "global_average_pooling2d_1", "class_name": "GlobalAveragePooling2D", "config": {"name": "global_average_pooling2d_1", "trainable": true, "dtype": "float32", "data_format": "channels_last"}, "inbound_nodes": [[["conv2d_1", 0, 0, {}]]]}, {"name": "global_average_pooling2d_2", "class_name": "GlobalAveragePooling2D", "config": {"name": "global_average_pooling2d_2", "trainable": true, "dtype": "float32", "data_format": "channels_last"}, "inbound_nodes": [[["conv2d_3", 0, 0, {}]]]}, {"name": "dropout", "class_name": "Dropout", "config": {"name": "dropout", "trainable": true, "dtype": "float32", "rate": 0.6, "noise_shape": null, "seed": null}, "inbound_nodes": [[["global_average_pooling2d", 0, 0, {}]]]}, {"name": "flatten_1", "class_name": "Flatten", "config": {"name": "flatten_1", "trainable": true, "dtype": "float32", "data_format": "channels_last"}, "inbound_nodes": [[["global_average_pooling2d_1", 0, 0, {}]]]}, {"name": "flatten_2", "class_name": "Flatten", "config": {"name": "flatten_2", "trainable": true, "dtype": "float32", "data_format": "channels_last"}, "inbound_nodes": [[["global_average_pooling2d_2", 0, 0, {}]]]}, {"name": "flatten", "class_name": "Flatten", "config": {"name": "flatten", "trainable": true, "dtype": "float32", "data_format": "channels_last"}, "inbound_nodes": [[["dropout", 0, 0, {}]]]}, {"name": "concat_2", "class_name": "Concatenate", "config": {"name": "concat_2", "trainable": true, "dtype": "float32", "axis": 1}, "inbound_nodes": [[["flatten_1", 0, 0, {}], ["flatten_2", 0, 0, {}], ["flatten", 0, 0, {}]]]}, {"name": "dense", "class_name": "Dense", "config": {"name": "dense", "trainable": true, "dtype": "float32", "units": 2, "activation": "softmax", "use_bias": true, "kernel_initializer": {"class_name": "GlorotUniform", "config": {"seed": null, "dtype": "float32"}}, "bias_initializer": {"class_name": "Zeros", "config": {"dtype": "float32"}}, "kernel_regularizer": null, "bias_regularizer": null, "activity_regularizer": null, "kernel_constraint": null, "bias_constraint": null}, "inbound_nodes": [[["concat_2", 0, 0, {}]]]}], "input_layers": [["input_2", 0, 0], ["input_3", 0, 0], ["input_1", 0, 0]], "output_layers": [["dense", 0, 0]]}, "keras_version": "2.1.6-tf", "backend": "tensorflow"}